module {
  func.func @main(%arg0: tensor<65536x768xf32>, %arg1: tensor<768x768xf32>, %arg2: tensor<768x768xf32>, %arg3: tensor<768x768xf32>, %arg4: tensor<768x768xf32>, %arg5: tensor<3072x768xf32>, %arg6: tensor<768x3072xf32>, %arg7: tensor<768x768xf32>, %arg8: tensor<768x768xf32>, %arg9: tensor<768x768xf32>, %arg10: tensor<768x768xf32>, %arg11: tensor<3072x768xf32>, %arg12: tensor<768x3072xf32>, %arg13: tensor<768x768xf32>, %arg14: tensor<768x768xf32>, %arg15: tensor<768x768xf32>, %arg16: tensor<768x768xf32>, %arg17: tensor<3072x768xf32>, %arg18: tensor<768x3072xf32>, %arg19: tensor<768x768xf32>, %arg20: tensor<768x768xf32>, %arg21: tensor<768x768xf32>, %arg22: tensor<768x768xf32>, %arg23: tensor<3072x768xf32>, %arg24: tensor<768x3072xf32>, %arg25: tensor<768x768xf32>, %arg26: tensor<768x768xf32>, %arg27: tensor<768x768xf32>, %arg28: tensor<768x768xf32>, %arg29: tensor<3072x768xf32>, %arg30: tensor<768x3072xf32>, %arg31: tensor<768x768xf32>, %arg32: tensor<768x768xf32>, %arg33: tensor<768x768xf32>, %arg34: tensor<768x768xf32>, %arg35: tensor<3072x768xf32>, %arg36: tensor<768x3072xf32>, %arg37: tensor<768x768xf32>, %arg38: tensor<768x768xf32>, %arg39: tensor<768x768xf32>, %arg40: tensor<768x768xf32>, %arg41: tensor<3072x768xf32>, %arg42: tensor<768x3072xf32>, %arg43: tensor<768x768xf32>, %arg44: tensor<768x768xf32>, %arg45: tensor<768x768xf32>, %arg46: tensor<768x768xf32>, %arg47: tensor<3072x768xf32>, %arg48: tensor<768x3072xf32>, %arg49: tensor<768x768xf32>, %arg50: tensor<768x768xf32>, %arg51: tensor<768x768xf32>, %arg52: tensor<768x768xf32>, %arg53: tensor<3072x768xf32>, %arg54: tensor<768x3072xf32>, %arg55: tensor<768x768xf32>, %arg56: tensor<768x768xf32>, %arg57: tensor<768x768xf32>, %arg58: tensor<768x768xf32>, %arg59: tensor<3072x768xf32>, %arg60: tensor<768x3072xf32>, %arg61: tensor<768x768xf32>, %arg62: tensor<768x768xf32>, %arg63: tensor<768x768xf32>, %arg64: tensor<768x768xf32>, %arg65: tensor<3072x768xf32>, %arg66: tensor<768x3072xf32>, %arg67: tensor<768x768xf32>, %arg68: tensor<768x768xf32>, %arg69: tensor<768x768xf32>, %arg70: tensor<768x768xf32>, %arg71: tensor<3072x768xf32>, %arg72: tensor<768x3072xf32>, %arg73: tensor<65536x768xf32>, %arg74: tensor<6x2048xi64>, %arg75: tensor<6x2048xi64>) -> tensor<f32> {
    %c = stablehlo.constant dense<0> : tensor<12288xi64>
    %c_0 = stablehlo.constant dense<-1> : tensor<12288xi64>
    %c_1 = stablehlo.constant dense<1> : tensor<2048x2048xi64>
    %c_2 = stablehlo.constant dense<0> : tensor<2048xi64>
    %c_3 = stablehlo.constant dense<1> : tensor<2048xi64>
    %c_4 = stablehlo.constant dense<2048> : tensor<i64>
    %c_5 = stablehlo.constant dense<1> : tensor<i64>
    %cst = stablehlo.constant dense<0.000000e+00> : tensor<f32>
    %c_6 = stablehlo.constant dense<0> : tensor<i64>
    %cst_7 = stablehlo.constant dense<0xFF800000> : tensor<f32>
    %c_8 = stablehlo.constant dense<true> : tensor<2048x2048xi1>
    %cst_9 = stablehlo.constant dense_resource<torch_tensor_1_2048_1_64_torch.bfloat16_1> : tensor<1x2048x1x64xbf16>
    %cst_10 = stablehlo.constant dense_resource<torch_tensor_1_2048_1_64_torch.bfloat16> : tensor<1x2048x1x64xbf16>
    %cst_11 = stablehlo.constant dense<0.000000e+00> : tensor<6x2048x3072xf32>
    %cst_12 = arith.constant dense<2> : tensor<1xi64>
    %cst_13 = arith.constant dense<768> : tensor<1xi64>
    %cst_14 = arith.constant dense<1.000000e-05> : tensor<1xf64>
    %cst_15 = arith.constant dense<128> : tensor<1xi64>
    %cst_16 = arith.constant dense<0.088388347648318433> : tensor<1xf64>
    %cst_17 = arith.constant dense<15> : tensor<1xi64>
    %0 = "stablehlo.gather"(%arg0, %arg74) <{dimension_numbers = #stablehlo.gather<offset_dims = [2], collapsed_slice_dims = [0], start_index_map = [0], index_vector_dim = 2>, indices_are_sorted = false, slice_sizes = array<i64: 1, 768>}> : (tensor<65536x768xf32>, tensor<6x2048xi64>) -> tensor<6x2048x768xf32>
    %1 = stablehlo.convert %0 : tensor<6x2048x768xf32>
    %2 = stablehlo.convert %cst_12 : (tensor<1xi64>) -> tensor<1xf32>
    %3 = stablehlo.reshape %2 : (tensor<1xf32>) -> tensor<f32>
    %4 = stablehlo.broadcast_in_dim %3, dims = [] : (tensor<f32>) -> tensor<6x2048x768xf32>
    %5 = stablehlo.power %1, %4 : tensor<6x2048x768xf32>
    %6 = stablehlo.reduce(%5 init: %cst) applies stablehlo.add across dimensions = [2] : (tensor<6x2048x768xf32>, tensor<f32>) -> tensor<6x2048xf32>
    %7 = stablehlo.reshape %6 : (tensor<6x2048xf32>) -> tensor<6x2048x1xf32>
    %8 = stablehlo.convert %cst_13 : (tensor<1xi64>) -> tensor<1xf32>
    %9 = stablehlo.reshape %8 : (tensor<1xf32>) -> tensor<f32>
    %10 = stablehlo.broadcast_in_dim %9, dims = [] : (tensor<f32>) -> tensor<6x2048x1xf32>
    %11 = stablehlo.divide %7, %10 : tensor<6x2048x1xf32>
    %12 = stablehlo.convert %cst_14 : (tensor<1xf64>) -> tensor<1xf32>
    %13 = stablehlo.reshape %12 : (tensor<1xf32>) -> tensor<f32>
    %14 = stablehlo.broadcast_in_dim %13, dims = [] : (tensor<f32>) -> tensor<6x2048x1xf32>
    %15 = stablehlo.add %11, %14 : tensor<6x2048x1xf32>
    %16 = stablehlo.rsqrt %15 : tensor<6x2048x1xf32>
    %17 = stablehlo.broadcast_in_dim %16, dims = [0, 1, 2] : (tensor<6x2048x1xf32>) -> tensor<6x2048x768xf32>
    %18 = stablehlo.multiply %1, %17 : tensor<6x2048x768xf32>
    %19 = stablehlo.power %18, %4 : tensor<6x2048x768xf32>
    %20 = stablehlo.reduce(%19 init: %cst) applies stablehlo.add across dimensions = [2] : (tensor<6x2048x768xf32>, tensor<f32>) -> tensor<6x2048xf32>
    %21 = stablehlo.reshape %20 : (tensor<6x2048xf32>) -> tensor<6x2048x1xf32>
    %22 = stablehlo.divide %21, %10 : tensor<6x2048x1xf32>
    %23 = stablehlo.add %22, %14 : tensor<6x2048x1xf32>
    %24 = stablehlo.rsqrt %23 : tensor<6x2048x1xf32>
    %25 = stablehlo.broadcast_in_dim %24, dims = [0, 1, 2] : (tensor<6x2048x1xf32>) -> tensor<6x2048x768xf32>
    %26 = stablehlo.multiply %18, %25 : tensor<6x2048x768xf32>
    %27 = stablehlo.transpose %arg1, dims = [1, 0] : (tensor<768x768xf32>) -> tensor<768x768xf32>
    %28 = stablehlo.reshape %26 : (tensor<6x2048x768xf32>) -> tensor<12288x768xf32>
    %29 = stablehlo.dot_general %28, %27, contracting_dims = [1] x [0] : (tensor<12288x768xf32>, tensor<768x768xf32>) -> tensor<12288x768xf32>
    %30 = stablehlo.reshape %29 : (tensor<12288x768xf32>) -> tensor<6x2048x768xf32>
    %31 = stablehlo.reshape %30 : (tensor<6x2048x768xf32>) -> tensor<6x2048x6x128xf32>
    %32 = stablehlo.transpose %arg2, dims = [1, 0] : (tensor<768x768xf32>) -> tensor<768x768xf32>
    %33 = stablehlo.dot_general %28, %32, contracting_dims = [1] x [0] : (tensor<12288x768xf32>, tensor<768x768xf32>) -> tensor<12288x768xf32>
    %34 = stablehlo.reshape %33 : (tensor<12288x768xf32>) -> tensor<6x2048x768xf32>
    %35 = stablehlo.reshape %34 : (tensor<6x2048x768xf32>) -> tensor<6x2048x6x128xf32>
    %36 = stablehlo.transpose %arg3, dims = [1, 0] : (tensor<768x768xf32>) -> tensor<768x768xf32>
    %37 = stablehlo.dot_general %28, %36, contracting_dims = [1] x [0] : (tensor<12288x768xf32>, tensor<768x768xf32>) -> tensor<12288x768xf32>
    %38 = stablehlo.reshape %37 : (tensor<12288x768xf32>) -> tensor<6x2048x768xf32>
    %39 = stablehlo.reshape %38 : (tensor<6x2048x768xf32>) -> tensor<6x2048x6x128xf32>
    %40 = stablehlo.slice %31 [0:6, 0:2048, 0:6, 0:64] : (tensor<6x2048x6x128xf32>) -> tensor<6x2048x6x64xf32>
    %41 = stablehlo.slice %31 [0:6, 0:2048, 0:6, 64:128] : (tensor<6x2048x6x128xf32>) -> tensor<6x2048x6x64xf32>
    %42 = stablehlo.convert %cst_10 : (tensor<1x2048x1x64xbf16>) -> tensor<1x2048x1x64xf32>
    %43 = stablehlo.broadcast_in_dim %42, dims = [0, 1, 2, 3] : (tensor<1x2048x1x64xf32>) -> tensor<6x2048x6x64xf32>
    %44 = stablehlo.multiply %40, %43 : tensor<6x2048x6x64xf32>
    %45 = stablehlo.convert %cst_9 : (tensor<1x2048x1x64xbf16>) -> tensor<1x2048x1x64xf32>
    %46 = stablehlo.broadcast_in_dim %45, dims = [0, 1, 2, 3] : (tensor<1x2048x1x64xf32>) -> tensor<6x2048x6x64xf32>
    %47 = stablehlo.multiply %41, %46 : tensor<6x2048x6x64xf32>
    %48 = stablehlo.add %44, %47 : tensor<6x2048x6x64xf32>
    %49 = stablehlo.negate %cst_9 : tensor<1x2048x1x64xbf16>
    %50 = stablehlo.convert %49 : (tensor<1x2048x1x64xbf16>) -> tensor<1x2048x1x64xf32>
    %51 = stablehlo.broadcast_in_dim %50, dims = [0, 1, 2, 3] : (tensor<1x2048x1x64xf32>) -> tensor<6x2048x6x64xf32>
    %52 = stablehlo.multiply %40, %51 : tensor<6x2048x6x64xf32>
    %53 = stablehlo.multiply %41, %43 : tensor<6x2048x6x64xf32>
    %54 = stablehlo.add %52, %53 : tensor<6x2048x6x64xf32>
    %55 = stablehlo.concatenate %48, %54, dim = 3 : (tensor<6x2048x6x64xf32>, tensor<6x2048x6x64xf32>) -> tensor<6x2048x6x128xf32>
    %56 = stablehlo.slice %35 [0:6, 0:2048, 0:6, 0:64] : (tensor<6x2048x6x128xf32>) -> tensor<6x2048x6x64xf32>
    %57 = stablehlo.slice %35 [0:6, 0:2048, 0:6, 64:128] : (tensor<6x2048x6x128xf32>) -> tensor<6x2048x6x64xf32>
    %58 = stablehlo.multiply %56, %43 : tensor<6x2048x6x64xf32>
    %59 = stablehlo.multiply %57, %46 : tensor<6x2048x6x64xf32>
    %60 = stablehlo.add %58, %59 : tensor<6x2048x6x64xf32>
    %61 = stablehlo.multiply %56, %51 : tensor<6x2048x6x64xf32>
    %62 = stablehlo.multiply %57, %43 : tensor<6x2048x6x64xf32>
    %63 = stablehlo.add %61, %62 : tensor<6x2048x6x64xf32>
    %64 = stablehlo.concatenate %60, %63, dim = 3 : (tensor<6x2048x6x64xf32>, tensor<6x2048x6x64xf32>) -> tensor<6x2048x6x128xf32>
    %65 = stablehlo.broadcast_in_dim %3, dims = [] : (tensor<f32>) -> tensor<6x2048x6x128xf32>
    %66 = stablehlo.power %55, %65 : tensor<6x2048x6x128xf32>
    %67 = stablehlo.reduce(%66 init: %cst) applies stablehlo.add across dimensions = [3] : (tensor<6x2048x6x128xf32>, tensor<f32>) -> tensor<6x2048x6xf32>
    %68 = stablehlo.reshape %67 : (tensor<6x2048x6xf32>) -> tensor<6x2048x6x1xf32>
    %69 = stablehlo.convert %cst_15 : (tensor<1xi64>) -> tensor<1xf32>
    %70 = stablehlo.reshape %69 : (tensor<1xf32>) -> tensor<f32>
    %71 = stablehlo.broadcast_in_dim %70, dims = [] : (tensor<f32>) -> tensor<6x2048x6x1xf32>
    %72 = stablehlo.divide %68, %71 : tensor<6x2048x6x1xf32>
    %73 = stablehlo.broadcast_in_dim %13, dims = [] : (tensor<f32>) -> tensor<6x2048x6x1xf32>
    %74 = stablehlo.add %72, %73 : tensor<6x2048x6x1xf32>
    %75 = stablehlo.rsqrt %74 : tensor<6x2048x6x1xf32>
    %76 = stablehlo.broadcast_in_dim %75, dims = [0, 1, 2, 3] : (tensor<6x2048x6x1xf32>) -> tensor<6x2048x6x128xf32>
    %77 = stablehlo.multiply %55, %76 : tensor<6x2048x6x128xf32>
    %78 = stablehlo.power %64, %65 : tensor<6x2048x6x128xf32>
    %79 = stablehlo.reduce(%78 init: %cst) applies stablehlo.add across dimensions = [3] : (tensor<6x2048x6x128xf32>, tensor<f32>) -> tensor<6x2048x6xf32>
    %80 = stablehlo.reshape %79 : (tensor<6x2048x6xf32>) -> tensor<6x2048x6x1xf32>
    %81 = stablehlo.divide %80, %71 : tensor<6x2048x6x1xf32>
    %82 = stablehlo.add %81, %73 : tensor<6x2048x6x1xf32>
    %83 = stablehlo.rsqrt %82 : tensor<6x2048x6x1xf32>
    %84 = stablehlo.broadcast_in_dim %83, dims = [0, 1, 2, 3] : (tensor<6x2048x6x1xf32>) -> tensor<6x2048x6x128xf32>
    %85 = stablehlo.multiply %64, %84 : tensor<6x2048x6x128xf32>
    %86 = stablehlo.transpose %77, dims = [0, 2, 1, 3] : (tensor<6x2048x6x128xf32>) -> tensor<6x6x2048x128xf32>
    %87 = stablehlo.transpose %85, dims = [0, 2, 1, 3] : (tensor<6x2048x6x128xf32>) -> tensor<6x6x2048x128xf32>
    %88 = stablehlo.transpose %39, dims = [0, 2, 1, 3] : (tensor<6x2048x6x128xf32>) -> tensor<6x6x2048x128xf32>
    %89 = stablehlo.transpose %87, dims = [0, 1, 3, 2] : (tensor<6x6x2048x128xf32>) -> tensor<6x6x128x2048xf32>
    %90 = stablehlo.reshape %86 : (tensor<6x6x2048x128xf32>) -> tensor<36x2048x128xf32>
    %91 = stablehlo.reshape %89 : (tensor<6x6x128x2048xf32>) -> tensor<36x128x2048xf32>
    %92 = stablehlo.broadcast_in_dim %91, dims = [0, 1, 2] : (tensor<36x128x2048xf32>) -> tensor<36x128x2048xf32>
    %93 = stablehlo.dot_general %90, %92, batching_dims = [0] x [0], contracting_dims = [2] x [1] : (tensor<36x2048x128xf32>, tensor<36x128x2048xf32>) -> tensor<36x2048x2048xf32>
    %94 = stablehlo.reshape %93 : (tensor<36x2048x2048xf32>) -> tensor<6x6x2048x2048xf32>
    %95 = stablehlo.convert %cst_16 : (tensor<1xf64>) -> tensor<1xf32>
    %96 = stablehlo.reshape %95 : (tensor<1xf32>) -> tensor<f32>
    %97 = stablehlo.broadcast_in_dim %96, dims = [] : (tensor<f32>) -> tensor<6x6x2048x2048xf32>
    %98 = stablehlo.multiply %94, %97 : tensor<6x6x2048x2048xf32>
    %99 = stablehlo.convert %c_5 : (tensor<i64>) -> tensor<f64>
    %100 = stablehlo.convert %c_4 : (tensor<i64>) -> tensor<f64>
    %101 = stablehlo.divide %100, %99 : tensor<f64>
    %102 = stablehlo.ceil %101 : tensor<f64>
    %103 = stablehlo.convert %102 : (tensor<f64>) -> tensor<i64>
    %104 = stablehlo.reshape %103 : (tensor<i64>) -> tensor<1xi64>
    %105 = stablehlo.dynamic_iota %104, dim = 0 : (tensor<1xi64>) -> tensor<2048xi64>
    %106 = stablehlo.multiply %105, %c_3 : tensor<2048xi64>
    %107 = stablehlo.add %106, %c_2 : tensor<2048xi64>
    %108 = stablehlo.reshape %107 : (tensor<2048xi64>) -> tensor<1x2048xi64>
    %109 = stablehlo.reshape %107 : (tensor<2048xi64>) -> tensor<2048x1xi64>
    %110 = stablehlo.broadcast_in_dim %108, dims = [0, 1] : (tensor<1x2048xi64>) -> tensor<2048x2048xi64>
    %111 = stablehlo.broadcast_in_dim %109, dims = [0, 1] : (tensor<2048x1xi64>) -> tensor<2048x2048xi64>
    %112 = stablehlo.subtract %110, %111 : tensor<2048x2048xi64>
    %113 = stablehlo.compare  GE, %112, %c_1,  SIGNED : (tensor<2048x2048xi64>, tensor<2048x2048xi64>) -> tensor<2048x2048xi1>
    %114 = stablehlo.and %113, %c_8 : tensor<2048x2048xi1>
    %115 = stablehlo.reshape %114 : (tensor<2048x2048xi1>) -> tensor<1x1x2048x2048xi1>
    %116 = stablehlo.broadcast_in_dim %115, dims = [0, 1, 2, 3] : (tensor<1x1x2048x2048xi1>) -> tensor<6x6x2048x2048xi1>
    %117 = stablehlo.broadcast_in_dim %cst_7, dims = [] : (tensor<f32>) -> tensor<6x6x2048x2048xf32>
    %118 = stablehlo.broadcast_in_dim %98, dims = [0, 1, 2, 3] : (tensor<6x6x2048x2048xf32>) -> tensor<6x6x2048x2048xf32>
    %119 = stablehlo.select %116, %117, %118 : tensor<6x6x2048x2048xi1>, tensor<6x6x2048x2048xf32>
    %120 = stablehlo.reduce(%119 init: %cst_7) applies stablehlo.maximum across dimensions = [3] : (tensor<6x6x2048x2048xf32>, tensor<f32>) -> tensor<6x6x2048xf32>
    %121 = stablehlo.reshape %120 : (tensor<6x6x2048xf32>) -> tensor<6x6x2048x1xf32>
    %122 = stablehlo.broadcast_in_dim %121, dims = [0, 1, 2, 3] : (tensor<6x6x2048x1xf32>) -> tensor<6x6x2048x2048xf32>
    %123 = stablehlo.subtract %119, %122 : tensor<6x6x2048x2048xf32>
    %124 = stablehlo.exponential %123 : tensor<6x6x2048x2048xf32>
    %125 = stablehlo.reduce(%124 init: %cst) applies stablehlo.add across dimensions = [3] : (tensor<6x6x2048x2048xf32>, tensor<f32>) -> tensor<6x6x2048xf32>
    %126 = stablehlo.reshape %125 : (tensor<6x6x2048xf32>) -> tensor<6x6x2048x1xf32>
    %127 = stablehlo.broadcast_in_dim %126, dims = [0, 1, 2, 3] : (tensor<6x6x2048x1xf32>) -> tensor<6x6x2048x2048xf32>
    %128 = stablehlo.divide %124, %127 : tensor<6x6x2048x2048xf32>
    %129 = stablehlo.reshape %128 : (tensor<6x6x2048x2048xf32>) -> tensor<36x2048x2048xf32>
    %130 = stablehlo.reshape %88 : (tensor<6x6x2048x128xf32>) -> tensor<36x2048x128xf32>
    %131 = stablehlo.broadcast_in_dim %130, dims = [0, 1, 2] : (tensor<36x2048x128xf32>) -> tensor<36x2048x128xf32>
    %132 = stablehlo.dot_general %129, %131, batching_dims = [0] x [0], contracting_dims = [2] x [1] : (tensor<36x2048x2048xf32>, tensor<36x2048x128xf32>) -> tensor<36x2048x128xf32>
    %133 = stablehlo.reshape %132 : (tensor<36x2048x128xf32>) -> tensor<6x6x2048x128xf32>
    %134 = stablehlo.transpose %133, dims = [0, 2, 1, 3] : (tensor<6x6x2048x128xf32>) -> tensor<6x2048x6x128xf32>
    %135 = stablehlo.reshape %134 : (tensor<6x2048x6x128xf32>) -> tensor<6x2048x768xf32>
    %136 = stablehlo.transpose %arg4, dims = [1, 0] : (tensor<768x768xf32>) -> tensor<768x768xf32>
    %137 = stablehlo.reshape %135 : (tensor<6x2048x768xf32>) -> tensor<12288x768xf32>
    %138 = stablehlo.dot_general %137, %136, contracting_dims = [1] x [0] : (tensor<12288x768xf32>, tensor<768x768xf32>) -> tensor<12288x768xf32>
    %139 = stablehlo.reshape %138 : (tensor<12288x768xf32>) -> tensor<6x2048x768xf32>
    %140 = stablehlo.add %18, %139 : tensor<6x2048x768xf32>
    %141 = stablehlo.power %140, %4 : tensor<6x2048x768xf32>
    %142 = stablehlo.reduce(%141 init: %cst) applies stablehlo.add across dimensions = [2] : (tensor<6x2048x768xf32>, tensor<f32>) -> tensor<6x2048xf32>
    %143 = stablehlo.reshape %142 : (tensor<6x2048xf32>) -> tensor<6x2048x1xf32>
    %144 = stablehlo.divide %143, %10 : tensor<6x2048x1xf32>
    %145 = stablehlo.add %144, %14 : tensor<6x2048x1xf32>
    %146 = stablehlo.rsqrt %145 : tensor<6x2048x1xf32>
    %147 = stablehlo.broadcast_in_dim %146, dims = [0, 1, 2] : (tensor<6x2048x1xf32>) -> tensor<6x2048x768xf32>
    %148 = stablehlo.multiply %140, %147 : tensor<6x2048x768xf32>
    %149 = stablehlo.transpose %arg5, dims = [1, 0] : (tensor<3072x768xf32>) -> tensor<768x3072xf32>
    %150 = stablehlo.reshape %148 : (tensor<6x2048x768xf32>) -> tensor<12288x768xf32>
    %151 = stablehlo.dot_general %150, %149, contracting_dims = [1] x [0] : (tensor<12288x768xf32>, tensor<768x3072xf32>) -> tensor<12288x3072xf32>
    %152 = stablehlo.reshape %151 : (tensor<12288x3072xf32>) -> tensor<6x2048x3072xf32>
    %153 = stablehlo.maximum %152, %cst_11 : tensor<6x2048x3072xf32>
    %154 = stablehlo.broadcast_in_dim %3, dims = [] : (tensor<f32>) -> tensor<6x2048x3072xf32>
    %155 = stablehlo.power %153, %154 : tensor<6x2048x3072xf32>
    %156 = stablehlo.transpose %arg6, dims = [1, 0] : (tensor<768x3072xf32>) -> tensor<3072x768xf32>
    %157 = stablehlo.reshape %155 : (tensor<6x2048x3072xf32>) -> tensor<12288x3072xf32>
    %158 = stablehlo.dot_general %157, %156, contracting_dims = [1] x [0] : (tensor<12288x3072xf32>, tensor<3072x768xf32>) -> tensor<12288x768xf32>
    %159 = stablehlo.reshape %158 : (tensor<12288x768xf32>) -> tensor<6x2048x768xf32>
    %160 = stablehlo.add %140, %159 : tensor<6x2048x768xf32>
    %161 = stablehlo.power %160, %4 : tensor<6x2048x768xf32>
    %162 = stablehlo.reduce(%161 init: %cst) applies stablehlo.add across dimensions = [2] : (tensor<6x2048x768xf32>, tensor<f32>) -> tensor<6x2048xf32>
    %163 = stablehlo.reshape %162 : (tensor<6x2048xf32>) -> tensor<6x2048x1xf32>
    %164 = stablehlo.divide %163, %10 : tensor<6x2048x1xf32>
    %165 = stablehlo.add %164, %14 : tensor<6x2048x1xf32>
    %166 = stablehlo.rsqrt %165 : tensor<6x2048x1xf32>
    %167 = stablehlo.broadcast_in_dim %166, dims = [0, 1, 2] : (tensor<6x2048x1xf32>) -> tensor<6x2048x768xf32>
    %168 = stablehlo.multiply %160, %167 : tensor<6x2048x768xf32>
    %169 = stablehlo.transpose %arg7, dims = [1, 0] : (tensor<768x768xf32>) -> tensor<768x768xf32>
    %170 = stablehlo.reshape %168 : (tensor<6x2048x768xf32>) -> tensor<12288x768xf32>
    %171 = stablehlo.dot_general %170, %169, contracting_dims = [1] x [0] : (tensor<12288x768xf32>, tensor<768x768xf32>) -> tensor<12288x768xf32>
    %172 = stablehlo.reshape %171 : (tensor<12288x768xf32>) -> tensor<6x2048x768xf32>
    %173 = stablehlo.reshape %172 : (tensor<6x2048x768xf32>) -> tensor<6x2048x6x128xf32>
    %174 = stablehlo.transpose %arg8, dims = [1, 0] : (tensor<768x768xf32>) -> tensor<768x768xf32>
    %175 = stablehlo.dot_general %170, %174, contracting_dims = [1] x [0] : (tensor<12288x768xf32>, tensor<768x768xf32>) -> tensor<12288x768xf32>
    %176 = stablehlo.reshape %175 : (tensor<12288x768xf32>) -> tensor<6x2048x768xf32>
    %177 = stablehlo.reshape %176 : (tensor<6x2048x768xf32>) -> tensor<6x2048x6x128xf32>
    %178 = stablehlo.transpose %arg9, dims = [1, 0] : (tensor<768x768xf32>) -> tensor<768x768xf32>
    %179 = stablehlo.dot_general %170, %178, contracting_dims = [1] x [0] : (tensor<12288x768xf32>, tensor<768x768xf32>) -> tensor<12288x768xf32>
    %180 = stablehlo.reshape %179 : (tensor<12288x768xf32>) -> tensor<6x2048x768xf32>
    %181 = stablehlo.reshape %180 : (tensor<6x2048x768xf32>) -> tensor<6x2048x6x128xf32>
    %182 = stablehlo.slice %173 [0:6, 0:2048, 0:6, 0:64] : (tensor<6x2048x6x128xf32>) -> tensor<6x2048x6x64xf32>
    %183 = stablehlo.slice %173 [0:6, 0:2048, 0:6, 64:128] : (tensor<6x2048x6x128xf32>) -> tensor<6x2048x6x64xf32>
    %184 = stablehlo.multiply %182, %43 : tensor<6x2048x6x64xf32>
    %185 = stablehlo.multiply %183, %46 : tensor<6x2048x6x64xf32>
    %186 = stablehlo.add %184, %185 : tensor<6x2048x6x64xf32>
    %187 = stablehlo.multiply %182, %51 : tensor<6x2048x6x64xf32>
    %188 = stablehlo.multiply %183, %43 : tensor<6x2048x6x64xf32>
    %189 = stablehlo.add %187, %188 : tensor<6x2048x6x64xf32>
    %190 = stablehlo.concatenate %186, %189, dim = 3 : (tensor<6x2048x6x64xf32>, tensor<6x2048x6x64xf32>) -> tensor<6x2048x6x128xf32>
    %191 = stablehlo.slice %177 [0:6, 0:2048, 0:6, 0:64] : (tensor<6x2048x6x128xf32>) -> tensor<6x2048x6x64xf32>
    %192 = stablehlo.slice %177 [0:6, 0:2048, 0:6, 64:128] : (tensor<6x2048x6x128xf32>) -> tensor<6x2048x6x64xf32>
    %193 = stablehlo.multiply %191, %43 : tensor<6x2048x6x64xf32>
    %194 = stablehlo.multiply %192, %46 : tensor<6x2048x6x64xf32>
    %195 = stablehlo.add %193, %194 : tensor<6x2048x6x64xf32>
    %196 = stablehlo.multiply %191, %51 : tensor<6x2048x6x64xf32>
    %197 = stablehlo.multiply %192, %43 : tensor<6x2048x6x64xf32>
    %198 = stablehlo.add %196, %197 : tensor<6x2048x6x64xf32>
    %199 = stablehlo.concatenate %195, %198, dim = 3 : (tensor<6x2048x6x64xf32>, tensor<6x2048x6x64xf32>) -> tensor<6x2048x6x128xf32>
    %200 = stablehlo.power %190, %65 : tensor<6x2048x6x128xf32>
    %201 = stablehlo.reduce(%200 init: %cst) applies stablehlo.add across dimensions = [3] : (tensor<6x2048x6x128xf32>, tensor<f32>) -> tensor<6x2048x6xf32>
    %202 = stablehlo.reshape %201 : (tensor<6x2048x6xf32>) -> tensor<6x2048x6x1xf32>
    %203 = stablehlo.divide %202, %71 : tensor<6x2048x6x1xf32>
    %204 = stablehlo.add %203, %73 : tensor<6x2048x6x1xf32>
    %205 = stablehlo.rsqrt %204 : tensor<6x2048x6x1xf32>
    %206 = stablehlo.broadcast_in_dim %205, dims = [0, 1, 2, 3] : (tensor<6x2048x6x1xf32>) -> tensor<6x2048x6x128xf32>
    %207 = stablehlo.multiply %190, %206 : tensor<6x2048x6x128xf32>
    %208 = stablehlo.power %199, %65 : tensor<6x2048x6x128xf32>
    %209 = stablehlo.reduce(%208 init: %cst) applies stablehlo.add across dimensions = [3] : (tensor<6x2048x6x128xf32>, tensor<f32>) -> tensor<6x2048x6xf32>
    %210 = stablehlo.reshape %209 : (tensor<6x2048x6xf32>) -> tensor<6x2048x6x1xf32>
    %211 = stablehlo.divide %210, %71 : tensor<6x2048x6x1xf32>
    %212 = stablehlo.add %211, %73 : tensor<6x2048x6x1xf32>
    %213 = stablehlo.rsqrt %212 : tensor<6x2048x6x1xf32>
    %214 = stablehlo.broadcast_in_dim %213, dims = [0, 1, 2, 3] : (tensor<6x2048x6x1xf32>) -> tensor<6x2048x6x128xf32>
    %215 = stablehlo.multiply %199, %214 : tensor<6x2048x6x128xf32>
    %216 = stablehlo.transpose %207, dims = [0, 2, 1, 3] : (tensor<6x2048x6x128xf32>) -> tensor<6x6x2048x128xf32>
    %217 = stablehlo.transpose %215, dims = [0, 2, 1, 3] : (tensor<6x2048x6x128xf32>) -> tensor<6x6x2048x128xf32>
    %218 = stablehlo.transpose %181, dims = [0, 2, 1, 3] : (tensor<6x2048x6x128xf32>) -> tensor<6x6x2048x128xf32>
    %219 = stablehlo.transpose %217, dims = [0, 1, 3, 2] : (tensor<6x6x2048x128xf32>) -> tensor<6x6x128x2048xf32>
    %220 = stablehlo.reshape %216 : (tensor<6x6x2048x128xf32>) -> tensor<36x2048x128xf32>
    %221 = stablehlo.reshape %219 : (tensor<6x6x128x2048xf32>) -> tensor<36x128x2048xf32>
    %222 = stablehlo.broadcast_in_dim %221, dims = [0, 1, 2] : (tensor<36x128x2048xf32>) -> tensor<36x128x2048xf32>
    %223 = stablehlo.dot_general %220, %222, batching_dims = [0] x [0], contracting_dims = [2] x [1] : (tensor<36x2048x128xf32>, tensor<36x128x2048xf32>) -> tensor<36x2048x2048xf32>
    %224 = stablehlo.reshape %223 : (tensor<36x2048x2048xf32>) -> tensor<6x6x2048x2048xf32>
    %225 = stablehlo.multiply %224, %97 : tensor<6x6x2048x2048xf32>
    %226 = stablehlo.broadcast_in_dim %225, dims = [0, 1, 2, 3] : (tensor<6x6x2048x2048xf32>) -> tensor<6x6x2048x2048xf32>
    %227 = stablehlo.select %116, %117, %226 : tensor<6x6x2048x2048xi1>, tensor<6x6x2048x2048xf32>
    %228 = stablehlo.reduce(%227 init: %cst_7) applies stablehlo.maximum across dimensions = [3] : (tensor<6x6x2048x2048xf32>, tensor<f32>) -> tensor<6x6x2048xf32>
    %229 = stablehlo.reshape %228 : (tensor<6x6x2048xf32>) -> tensor<6x6x2048x1xf32>
    %230 = stablehlo.broadcast_in_dim %229, dims = [0, 1, 2, 3] : (tensor<6x6x2048x1xf32>) -> tensor<6x6x2048x2048xf32>
    %231 = stablehlo.subtract %227, %230 : tensor<6x6x2048x2048xf32>
    %232 = stablehlo.exponential %231 : tensor<6x6x2048x2048xf32>
    %233 = stablehlo.reduce(%232 init: %cst) applies stablehlo.add across dimensions = [3] : (tensor<6x6x2048x2048xf32>, tensor<f32>) -> tensor<6x6x2048xf32>
    %234 = stablehlo.reshape %233 : (tensor<6x6x2048xf32>) -> tensor<6x6x2048x1xf32>
    %235 = stablehlo.broadcast_in_dim %234, dims = [0, 1, 2, 3] : (tensor<6x6x2048x1xf32>) -> tensor<6x6x2048x2048xf32>
    %236 = stablehlo.divide %232, %235 : tensor<6x6x2048x2048xf32>
    %237 = stablehlo.reshape %236 : (tensor<6x6x2048x2048xf32>) -> tensor<36x2048x2048xf32>
    %238 = stablehlo.reshape %218 : (tensor<6x6x2048x128xf32>) -> tensor<36x2048x128xf32>
    %239 = stablehlo.broadcast_in_dim %238, dims = [0, 1, 2] : (tensor<36x2048x128xf32>) -> tensor<36x2048x128xf32>
    %240 = stablehlo.dot_general %237, %239, batching_dims = [0] x [0], contracting_dims = [2] x [1] : (tensor<36x2048x2048xf32>, tensor<36x2048x128xf32>) -> tensor<36x2048x128xf32>
    %241 = stablehlo.reshape %240 : (tensor<36x2048x128xf32>) -> tensor<6x6x2048x128xf32>
    %242 = stablehlo.transpose %241, dims = [0, 2, 1, 3] : (tensor<6x6x2048x128xf32>) -> tensor<6x2048x6x128xf32>
    %243 = stablehlo.reshape %242 : (tensor<6x2048x6x128xf32>) -> tensor<6x2048x768xf32>
    %244 = stablehlo.transpose %arg10, dims = [1, 0] : (tensor<768x768xf32>) -> tensor<768x768xf32>
    %245 = stablehlo.reshape %243 : (tensor<6x2048x768xf32>) -> tensor<12288x768xf32>
    %246 = stablehlo.dot_general %245, %244, contracting_dims = [1] x [0] : (tensor<12288x768xf32>, tensor<768x768xf32>) -> tensor<12288x768xf32>
    %247 = stablehlo.reshape %246 : (tensor<12288x768xf32>) -> tensor<6x2048x768xf32>
    %248 = stablehlo.add %160, %247 : tensor<6x2048x768xf32>
    %249 = stablehlo.power %248, %4 : tensor<6x2048x768xf32>
    %250 = stablehlo.reduce(%249 init: %cst) applies stablehlo.add across dimensions = [2] : (tensor<6x2048x768xf32>, tensor<f32>) -> tensor<6x2048xf32>
    %251 = stablehlo.reshape %250 : (tensor<6x2048xf32>) -> tensor<6x2048x1xf32>
    %252 = stablehlo.divide %251, %10 : tensor<6x2048x1xf32>
    %253 = stablehlo.add %252, %14 : tensor<6x2048x1xf32>
    %254 = stablehlo.rsqrt %253 : tensor<6x2048x1xf32>
    %255 = stablehlo.broadcast_in_dim %254, dims = [0, 1, 2] : (tensor<6x2048x1xf32>) -> tensor<6x2048x768xf32>
    %256 = stablehlo.multiply %248, %255 : tensor<6x2048x768xf32>
    %257 = stablehlo.transpose %arg11, dims = [1, 0] : (tensor<3072x768xf32>) -> tensor<768x3072xf32>
    %258 = stablehlo.reshape %256 : (tensor<6x2048x768xf32>) -> tensor<12288x768xf32>
    %259 = stablehlo.dot_general %258, %257, contracting_dims = [1] x [0] : (tensor<12288x768xf32>, tensor<768x3072xf32>) -> tensor<12288x3072xf32>
    %260 = stablehlo.reshape %259 : (tensor<12288x3072xf32>) -> tensor<6x2048x3072xf32>
    %261 = stablehlo.maximum %260, %cst_11 : tensor<6x2048x3072xf32>
    %262 = stablehlo.power %261, %154 : tensor<6x2048x3072xf32>
    %263 = stablehlo.transpose %arg12, dims = [1, 0] : (tensor<768x3072xf32>) -> tensor<3072x768xf32>
    %264 = stablehlo.reshape %262 : (tensor<6x2048x3072xf32>) -> tensor<12288x3072xf32>
    %265 = stablehlo.dot_general %264, %263, contracting_dims = [1] x [0] : (tensor<12288x3072xf32>, tensor<3072x768xf32>) -> tensor<12288x768xf32>
    %266 = stablehlo.reshape %265 : (tensor<12288x768xf32>) -> tensor<6x2048x768xf32>
    %267 = stablehlo.add %248, %266 : tensor<6x2048x768xf32>
    %268 = stablehlo.power %267, %4 : tensor<6x2048x768xf32>
    %269 = stablehlo.reduce(%268 init: %cst) applies stablehlo.add across dimensions = [2] : (tensor<6x2048x768xf32>, tensor<f32>) -> tensor<6x2048xf32>
    %270 = stablehlo.reshape %269 : (tensor<6x2048xf32>) -> tensor<6x2048x1xf32>
    %271 = stablehlo.divide %270, %10 : tensor<6x2048x1xf32>
    %272 = stablehlo.add %271, %14 : tensor<6x2048x1xf32>
    %273 = stablehlo.rsqrt %272 : tensor<6x2048x1xf32>
    %274 = stablehlo.broadcast_in_dim %273, dims = [0, 1, 2] : (tensor<6x2048x1xf32>) -> tensor<6x2048x768xf32>
    %275 = stablehlo.multiply %267, %274 : tensor<6x2048x768xf32>
    %276 = stablehlo.transpose %arg13, dims = [1, 0] : (tensor<768x768xf32>) -> tensor<768x768xf32>
    %277 = stablehlo.reshape %275 : (tensor<6x2048x768xf32>) -> tensor<12288x768xf32>
    %278 = stablehlo.dot_general %277, %276, contracting_dims = [1] x [0] : (tensor<12288x768xf32>, tensor<768x768xf32>) -> tensor<12288x768xf32>
    %279 = stablehlo.reshape %278 : (tensor<12288x768xf32>) -> tensor<6x2048x768xf32>
    %280 = stablehlo.reshape %279 : (tensor<6x2048x768xf32>) -> tensor<6x2048x6x128xf32>
    %281 = stablehlo.transpose %arg14, dims = [1, 0] : (tensor<768x768xf32>) -> tensor<768x768xf32>
    %282 = stablehlo.dot_general %277, %281, contracting_dims = [1] x [0] : (tensor<12288x768xf32>, tensor<768x768xf32>) -> tensor<12288x768xf32>
    %283 = stablehlo.reshape %282 : (tensor<12288x768xf32>) -> tensor<6x2048x768xf32>
    %284 = stablehlo.reshape %283 : (tensor<6x2048x768xf32>) -> tensor<6x2048x6x128xf32>
    %285 = stablehlo.transpose %arg15, dims = [1, 0] : (tensor<768x768xf32>) -> tensor<768x768xf32>
    %286 = stablehlo.dot_general %277, %285, contracting_dims = [1] x [0] : (tensor<12288x768xf32>, tensor<768x768xf32>) -> tensor<12288x768xf32>
    %287 = stablehlo.reshape %286 : (tensor<12288x768xf32>) -> tensor<6x2048x768xf32>
    %288 = stablehlo.reshape %287 : (tensor<6x2048x768xf32>) -> tensor<6x2048x6x128xf32>
    %289 = stablehlo.slice %280 [0:6, 0:2048, 0:6, 0:64] : (tensor<6x2048x6x128xf32>) -> tensor<6x2048x6x64xf32>
    %290 = stablehlo.slice %280 [0:6, 0:2048, 0:6, 64:128] : (tensor<6x2048x6x128xf32>) -> tensor<6x2048x6x64xf32>
    %291 = stablehlo.multiply %289, %43 : tensor<6x2048x6x64xf32>
    %292 = stablehlo.multiply %290, %46 : tensor<6x2048x6x64xf32>
    %293 = stablehlo.add %291, %292 : tensor<6x2048x6x64xf32>
    %294 = stablehlo.multiply %289, %51 : tensor<6x2048x6x64xf32>
    %295 = stablehlo.multiply %290, %43 : tensor<6x2048x6x64xf32>
    %296 = stablehlo.add %294, %295 : tensor<6x2048x6x64xf32>
    %297 = stablehlo.concatenate %293, %296, dim = 3 : (tensor<6x2048x6x64xf32>, tensor<6x2048x6x64xf32>) -> tensor<6x2048x6x128xf32>
    %298 = stablehlo.slice %284 [0:6, 0:2048, 0:6, 0:64] : (tensor<6x2048x6x128xf32>) -> tensor<6x2048x6x64xf32>
    %299 = stablehlo.slice %284 [0:6, 0:2048, 0:6, 64:128] : (tensor<6x2048x6x128xf32>) -> tensor<6x2048x6x64xf32>
    %300 = stablehlo.multiply %298, %43 : tensor<6x2048x6x64xf32>
    %301 = stablehlo.multiply %299, %46 : tensor<6x2048x6x64xf32>
    %302 = stablehlo.add %300, %301 : tensor<6x2048x6x64xf32>
    %303 = stablehlo.multiply %298, %51 : tensor<6x2048x6x64xf32>
    %304 = stablehlo.multiply %299, %43 : tensor<6x2048x6x64xf32>
    %305 = stablehlo.add %303, %304 : tensor<6x2048x6x64xf32>
    %306 = stablehlo.concatenate %302, %305, dim = 3 : (tensor<6x2048x6x64xf32>, tensor<6x2048x6x64xf32>) -> tensor<6x2048x6x128xf32>
    %307 = stablehlo.power %297, %65 : tensor<6x2048x6x128xf32>
    %308 = stablehlo.reduce(%307 init: %cst) applies stablehlo.add across dimensions = [3] : (tensor<6x2048x6x128xf32>, tensor<f32>) -> tensor<6x2048x6xf32>
    %309 = stablehlo.reshape %308 : (tensor<6x2048x6xf32>) -> tensor<6x2048x6x1xf32>
    %310 = stablehlo.divide %309, %71 : tensor<6x2048x6x1xf32>
    %311 = stablehlo.add %310, %73 : tensor<6x2048x6x1xf32>
    %312 = stablehlo.rsqrt %311 : tensor<6x2048x6x1xf32>
    %313 = stablehlo.broadcast_in_dim %312, dims = [0, 1, 2, 3] : (tensor<6x2048x6x1xf32>) -> tensor<6x2048x6x128xf32>
    %314 = stablehlo.multiply %297, %313 : tensor<6x2048x6x128xf32>
    %315 = stablehlo.power %306, %65 : tensor<6x2048x6x128xf32>
    %316 = stablehlo.reduce(%315 init: %cst) applies stablehlo.add across dimensions = [3] : (tensor<6x2048x6x128xf32>, tensor<f32>) -> tensor<6x2048x6xf32>
    %317 = stablehlo.reshape %316 : (tensor<6x2048x6xf32>) -> tensor<6x2048x6x1xf32>
    %318 = stablehlo.divide %317, %71 : tensor<6x2048x6x1xf32>
    %319 = stablehlo.add %318, %73 : tensor<6x2048x6x1xf32>
    %320 = stablehlo.rsqrt %319 : tensor<6x2048x6x1xf32>
    %321 = stablehlo.broadcast_in_dim %320, dims = [0, 1, 2, 3] : (tensor<6x2048x6x1xf32>) -> tensor<6x2048x6x128xf32>
    %322 = stablehlo.multiply %306, %321 : tensor<6x2048x6x128xf32>
    %323 = stablehlo.transpose %314, dims = [0, 2, 1, 3] : (tensor<6x2048x6x128xf32>) -> tensor<6x6x2048x128xf32>
    %324 = stablehlo.transpose %322, dims = [0, 2, 1, 3] : (tensor<6x2048x6x128xf32>) -> tensor<6x6x2048x128xf32>
    %325 = stablehlo.transpose %288, dims = [0, 2, 1, 3] : (tensor<6x2048x6x128xf32>) -> tensor<6x6x2048x128xf32>
    %326 = stablehlo.transpose %324, dims = [0, 1, 3, 2] : (tensor<6x6x2048x128xf32>) -> tensor<6x6x128x2048xf32>
    %327 = stablehlo.reshape %323 : (tensor<6x6x2048x128xf32>) -> tensor<36x2048x128xf32>
    %328 = stablehlo.reshape %326 : (tensor<6x6x128x2048xf32>) -> tensor<36x128x2048xf32>
    %329 = stablehlo.broadcast_in_dim %328, dims = [0, 1, 2] : (tensor<36x128x2048xf32>) -> tensor<36x128x2048xf32>
    %330 = stablehlo.dot_general %327, %329, batching_dims = [0] x [0], contracting_dims = [2] x [1] : (tensor<36x2048x128xf32>, tensor<36x128x2048xf32>) -> tensor<36x2048x2048xf32>
    %331 = stablehlo.reshape %330 : (tensor<36x2048x2048xf32>) -> tensor<6x6x2048x2048xf32>
    %332 = stablehlo.multiply %331, %97 : tensor<6x6x2048x2048xf32>
    %333 = stablehlo.broadcast_in_dim %332, dims = [0, 1, 2, 3] : (tensor<6x6x2048x2048xf32>) -> tensor<6x6x2048x2048xf32>
    %334 = stablehlo.select %116, %117, %333 : tensor<6x6x2048x2048xi1>, tensor<6x6x2048x2048xf32>
    %335 = stablehlo.reduce(%334 init: %cst_7) applies stablehlo.maximum across dimensions = [3] : (tensor<6x6x2048x2048xf32>, tensor<f32>) -> tensor<6x6x2048xf32>
    %336 = stablehlo.reshape %335 : (tensor<6x6x2048xf32>) -> tensor<6x6x2048x1xf32>
    %337 = stablehlo.broadcast_in_dim %336, dims = [0, 1, 2, 3] : (tensor<6x6x2048x1xf32>) -> tensor<6x6x2048x2048xf32>
    %338 = stablehlo.subtract %334, %337 : tensor<6x6x2048x2048xf32>
    %339 = stablehlo.exponential %338 : tensor<6x6x2048x2048xf32>
    %340 = stablehlo.reduce(%339 init: %cst) applies stablehlo.add across dimensions = [3] : (tensor<6x6x2048x2048xf32>, tensor<f32>) -> tensor<6x6x2048xf32>
    %341 = stablehlo.reshape %340 : (tensor<6x6x2048xf32>) -> tensor<6x6x2048x1xf32>
    %342 = stablehlo.broadcast_in_dim %341, dims = [0, 1, 2, 3] : (tensor<6x6x2048x1xf32>) -> tensor<6x6x2048x2048xf32>
    %343 = stablehlo.divide %339, %342 : tensor<6x6x2048x2048xf32>
    %344 = stablehlo.reshape %343 : (tensor<6x6x2048x2048xf32>) -> tensor<36x2048x2048xf32>
    %345 = stablehlo.reshape %325 : (tensor<6x6x2048x128xf32>) -> tensor<36x2048x128xf32>
    %346 = stablehlo.broadcast_in_dim %345, dims = [0, 1, 2] : (tensor<36x2048x128xf32>) -> tensor<36x2048x128xf32>
    %347 = stablehlo.dot_general %344, %346, batching_dims = [0] x [0], contracting_dims = [2] x [1] : (tensor<36x2048x2048xf32>, tensor<36x2048x128xf32>) -> tensor<36x2048x128xf32>
    %348 = stablehlo.reshape %347 : (tensor<36x2048x128xf32>) -> tensor<6x6x2048x128xf32>
    %349 = stablehlo.transpose %348, dims = [0, 2, 1, 3] : (tensor<6x6x2048x128xf32>) -> tensor<6x2048x6x128xf32>
    %350 = stablehlo.reshape %349 : (tensor<6x2048x6x128xf32>) -> tensor<6x2048x768xf32>
    %351 = stablehlo.transpose %arg16, dims = [1, 0] : (tensor<768x768xf32>) -> tensor<768x768xf32>
    %352 = stablehlo.reshape %350 : (tensor<6x2048x768xf32>) -> tensor<12288x768xf32>
    %353 = stablehlo.dot_general %352, %351, contracting_dims = [1] x [0] : (tensor<12288x768xf32>, tensor<768x768xf32>) -> tensor<12288x768xf32>
    %354 = stablehlo.reshape %353 : (tensor<12288x768xf32>) -> tensor<6x2048x768xf32>
    %355 = stablehlo.add %267, %354 : tensor<6x2048x768xf32>
    %356 = stablehlo.power %355, %4 : tensor<6x2048x768xf32>
    %357 = stablehlo.reduce(%356 init: %cst) applies stablehlo.add across dimensions = [2] : (tensor<6x2048x768xf32>, tensor<f32>) -> tensor<6x2048xf32>
    %358 = stablehlo.reshape %357 : (tensor<6x2048xf32>) -> tensor<6x2048x1xf32>
    %359 = stablehlo.divide %358, %10 : tensor<6x2048x1xf32>
    %360 = stablehlo.add %359, %14 : tensor<6x2048x1xf32>
    %361 = stablehlo.rsqrt %360 : tensor<6x2048x1xf32>
    %362 = stablehlo.broadcast_in_dim %361, dims = [0, 1, 2] : (tensor<6x2048x1xf32>) -> tensor<6x2048x768xf32>
    %363 = stablehlo.multiply %355, %362 : tensor<6x2048x768xf32>
    %364 = stablehlo.transpose %arg17, dims = [1, 0] : (tensor<3072x768xf32>) -> tensor<768x3072xf32>
    %365 = stablehlo.reshape %363 : (tensor<6x2048x768xf32>) -> tensor<12288x768xf32>
    %366 = stablehlo.dot_general %365, %364, contracting_dims = [1] x [0] : (tensor<12288x768xf32>, tensor<768x3072xf32>) -> tensor<12288x3072xf32>
    %367 = stablehlo.reshape %366 : (tensor<12288x3072xf32>) -> tensor<6x2048x3072xf32>
    %368 = stablehlo.maximum %367, %cst_11 : tensor<6x2048x3072xf32>
    %369 = stablehlo.power %368, %154 : tensor<6x2048x3072xf32>
    %370 = stablehlo.transpose %arg18, dims = [1, 0] : (tensor<768x3072xf32>) -> tensor<3072x768xf32>
    %371 = stablehlo.reshape %369 : (tensor<6x2048x3072xf32>) -> tensor<12288x3072xf32>
    %372 = stablehlo.dot_general %371, %370, contracting_dims = [1] x [0] : (tensor<12288x3072xf32>, tensor<3072x768xf32>) -> tensor<12288x768xf32>
    %373 = stablehlo.reshape %372 : (tensor<12288x768xf32>) -> tensor<6x2048x768xf32>
    %374 = stablehlo.add %355, %373 : tensor<6x2048x768xf32>
    %375 = stablehlo.power %374, %4 : tensor<6x2048x768xf32>
    %376 = stablehlo.reduce(%375 init: %cst) applies stablehlo.add across dimensions = [2] : (tensor<6x2048x768xf32>, tensor<f32>) -> tensor<6x2048xf32>
    %377 = stablehlo.reshape %376 : (tensor<6x2048xf32>) -> tensor<6x2048x1xf32>
    %378 = stablehlo.divide %377, %10 : tensor<6x2048x1xf32>
    %379 = stablehlo.add %378, %14 : tensor<6x2048x1xf32>
    %380 = stablehlo.rsqrt %379 : tensor<6x2048x1xf32>
    %381 = stablehlo.broadcast_in_dim %380, dims = [0, 1, 2] : (tensor<6x2048x1xf32>) -> tensor<6x2048x768xf32>
    %382 = stablehlo.multiply %374, %381 : tensor<6x2048x768xf32>
    %383 = stablehlo.transpose %arg19, dims = [1, 0] : (tensor<768x768xf32>) -> tensor<768x768xf32>
    %384 = stablehlo.reshape %382 : (tensor<6x2048x768xf32>) -> tensor<12288x768xf32>
    %385 = stablehlo.dot_general %384, %383, contracting_dims = [1] x [0] : (tensor<12288x768xf32>, tensor<768x768xf32>) -> tensor<12288x768xf32>
    %386 = stablehlo.reshape %385 : (tensor<12288x768xf32>) -> tensor<6x2048x768xf32>
    %387 = stablehlo.reshape %386 : (tensor<6x2048x768xf32>) -> tensor<6x2048x6x128xf32>
    %388 = stablehlo.transpose %arg20, dims = [1, 0] : (tensor<768x768xf32>) -> tensor<768x768xf32>
    %389 = stablehlo.dot_general %384, %388, contracting_dims = [1] x [0] : (tensor<12288x768xf32>, tensor<768x768xf32>) -> tensor<12288x768xf32>
    %390 = stablehlo.reshape %389 : (tensor<12288x768xf32>) -> tensor<6x2048x768xf32>
    %391 = stablehlo.reshape %390 : (tensor<6x2048x768xf32>) -> tensor<6x2048x6x128xf32>
    %392 = stablehlo.transpose %arg21, dims = [1, 0] : (tensor<768x768xf32>) -> tensor<768x768xf32>
    %393 = stablehlo.dot_general %384, %392, contracting_dims = [1] x [0] : (tensor<12288x768xf32>, tensor<768x768xf32>) -> tensor<12288x768xf32>
    %394 = stablehlo.reshape %393 : (tensor<12288x768xf32>) -> tensor<6x2048x768xf32>
    %395 = stablehlo.reshape %394 : (tensor<6x2048x768xf32>) -> tensor<6x2048x6x128xf32>
    %396 = stablehlo.slice %387 [0:6, 0:2048, 0:6, 0:64] : (tensor<6x2048x6x128xf32>) -> tensor<6x2048x6x64xf32>
    %397 = stablehlo.slice %387 [0:6, 0:2048, 0:6, 64:128] : (tensor<6x2048x6x128xf32>) -> tensor<6x2048x6x64xf32>
    %398 = stablehlo.multiply %396, %43 : tensor<6x2048x6x64xf32>
    %399 = stablehlo.multiply %397, %46 : tensor<6x2048x6x64xf32>
    %400 = stablehlo.add %398, %399 : tensor<6x2048x6x64xf32>
    %401 = stablehlo.multiply %396, %51 : tensor<6x2048x6x64xf32>
    %402 = stablehlo.multiply %397, %43 : tensor<6x2048x6x64xf32>
    %403 = stablehlo.add %401, %402 : tensor<6x2048x6x64xf32>
    %404 = stablehlo.concatenate %400, %403, dim = 3 : (tensor<6x2048x6x64xf32>, tensor<6x2048x6x64xf32>) -> tensor<6x2048x6x128xf32>
    %405 = stablehlo.slice %391 [0:6, 0:2048, 0:6, 0:64] : (tensor<6x2048x6x128xf32>) -> tensor<6x2048x6x64xf32>
    %406 = stablehlo.slice %391 [0:6, 0:2048, 0:6, 64:128] : (tensor<6x2048x6x128xf32>) -> tensor<6x2048x6x64xf32>
    %407 = stablehlo.multiply %405, %43 : tensor<6x2048x6x64xf32>
    %408 = stablehlo.multiply %406, %46 : tensor<6x2048x6x64xf32>
    %409 = stablehlo.add %407, %408 : tensor<6x2048x6x64xf32>
    %410 = stablehlo.multiply %405, %51 : tensor<6x2048x6x64xf32>
    %411 = stablehlo.multiply %406, %43 : tensor<6x2048x6x64xf32>
    %412 = stablehlo.add %410, %411 : tensor<6x2048x6x64xf32>
    %413 = stablehlo.concatenate %409, %412, dim = 3 : (tensor<6x2048x6x64xf32>, tensor<6x2048x6x64xf32>) -> tensor<6x2048x6x128xf32>
    %414 = stablehlo.power %404, %65 : tensor<6x2048x6x128xf32>
    %415 = stablehlo.reduce(%414 init: %cst) applies stablehlo.add across dimensions = [3] : (tensor<6x2048x6x128xf32>, tensor<f32>) -> tensor<6x2048x6xf32>
    %416 = stablehlo.reshape %415 : (tensor<6x2048x6xf32>) -> tensor<6x2048x6x1xf32>
    %417 = stablehlo.divide %416, %71 : tensor<6x2048x6x1xf32>
    %418 = stablehlo.add %417, %73 : tensor<6x2048x6x1xf32>
    %419 = stablehlo.rsqrt %418 : tensor<6x2048x6x1xf32>
    %420 = stablehlo.broadcast_in_dim %419, dims = [0, 1, 2, 3] : (tensor<6x2048x6x1xf32>) -> tensor<6x2048x6x128xf32>
    %421 = stablehlo.multiply %404, %420 : tensor<6x2048x6x128xf32>
    %422 = stablehlo.power %413, %65 : tensor<6x2048x6x128xf32>
    %423 = stablehlo.reduce(%422 init: %cst) applies stablehlo.add across dimensions = [3] : (tensor<6x2048x6x128xf32>, tensor<f32>) -> tensor<6x2048x6xf32>
    %424 = stablehlo.reshape %423 : (tensor<6x2048x6xf32>) -> tensor<6x2048x6x1xf32>
    %425 = stablehlo.divide %424, %71 : tensor<6x2048x6x1xf32>
    %426 = stablehlo.add %425, %73 : tensor<6x2048x6x1xf32>
    %427 = stablehlo.rsqrt %426 : tensor<6x2048x6x1xf32>
    %428 = stablehlo.broadcast_in_dim %427, dims = [0, 1, 2, 3] : (tensor<6x2048x6x1xf32>) -> tensor<6x2048x6x128xf32>
    %429 = stablehlo.multiply %413, %428 : tensor<6x2048x6x128xf32>
    %430 = stablehlo.transpose %421, dims = [0, 2, 1, 3] : (tensor<6x2048x6x128xf32>) -> tensor<6x6x2048x128xf32>
    %431 = stablehlo.transpose %429, dims = [0, 2, 1, 3] : (tensor<6x2048x6x128xf32>) -> tensor<6x6x2048x128xf32>
    %432 = stablehlo.transpose %395, dims = [0, 2, 1, 3] : (tensor<6x2048x6x128xf32>) -> tensor<6x6x2048x128xf32>
    %433 = stablehlo.transpose %431, dims = [0, 1, 3, 2] : (tensor<6x6x2048x128xf32>) -> tensor<6x6x128x2048xf32>
    %434 = stablehlo.reshape %430 : (tensor<6x6x2048x128xf32>) -> tensor<36x2048x128xf32>
    %435 = stablehlo.reshape %433 : (tensor<6x6x128x2048xf32>) -> tensor<36x128x2048xf32>
    %436 = stablehlo.broadcast_in_dim %435, dims = [0, 1, 2] : (tensor<36x128x2048xf32>) -> tensor<36x128x2048xf32>
    %437 = stablehlo.dot_general %434, %436, batching_dims = [0] x [0], contracting_dims = [2] x [1] : (tensor<36x2048x128xf32>, tensor<36x128x2048xf32>) -> tensor<36x2048x2048xf32>
    %438 = stablehlo.reshape %437 : (tensor<36x2048x2048xf32>) -> tensor<6x6x2048x2048xf32>
    %439 = stablehlo.multiply %438, %97 : tensor<6x6x2048x2048xf32>
    %440 = stablehlo.broadcast_in_dim %439, dims = [0, 1, 2, 3] : (tensor<6x6x2048x2048xf32>) -> tensor<6x6x2048x2048xf32>
    %441 = stablehlo.select %116, %117, %440 : tensor<6x6x2048x2048xi1>, tensor<6x6x2048x2048xf32>
    %442 = stablehlo.reduce(%441 init: %cst_7) applies stablehlo.maximum across dimensions = [3] : (tensor<6x6x2048x2048xf32>, tensor<f32>) -> tensor<6x6x2048xf32>
    %443 = stablehlo.reshape %442 : (tensor<6x6x2048xf32>) -> tensor<6x6x2048x1xf32>
    %444 = stablehlo.broadcast_in_dim %443, dims = [0, 1, 2, 3] : (tensor<6x6x2048x1xf32>) -> tensor<6x6x2048x2048xf32>
    %445 = stablehlo.subtract %441, %444 : tensor<6x6x2048x2048xf32>
    %446 = stablehlo.exponential %445 : tensor<6x6x2048x2048xf32>
    %447 = stablehlo.reduce(%446 init: %cst) applies stablehlo.add across dimensions = [3] : (tensor<6x6x2048x2048xf32>, tensor<f32>) -> tensor<6x6x2048xf32>
    %448 = stablehlo.reshape %447 : (tensor<6x6x2048xf32>) -> tensor<6x6x2048x1xf32>
    %449 = stablehlo.broadcast_in_dim %448, dims = [0, 1, 2, 3] : (tensor<6x6x2048x1xf32>) -> tensor<6x6x2048x2048xf32>
    %450 = stablehlo.divide %446, %449 : tensor<6x6x2048x2048xf32>
    %451 = stablehlo.reshape %450 : (tensor<6x6x2048x2048xf32>) -> tensor<36x2048x2048xf32>
    %452 = stablehlo.reshape %432 : (tensor<6x6x2048x128xf32>) -> tensor<36x2048x128xf32>
    %453 = stablehlo.broadcast_in_dim %452, dims = [0, 1, 2] : (tensor<36x2048x128xf32>) -> tensor<36x2048x128xf32>
    %454 = stablehlo.dot_general %451, %453, batching_dims = [0] x [0], contracting_dims = [2] x [1] : (tensor<36x2048x2048xf32>, tensor<36x2048x128xf32>) -> tensor<36x2048x128xf32>
    %455 = stablehlo.reshape %454 : (tensor<36x2048x128xf32>) -> tensor<6x6x2048x128xf32>
    %456 = stablehlo.transpose %455, dims = [0, 2, 1, 3] : (tensor<6x6x2048x128xf32>) -> tensor<6x2048x6x128xf32>
    %457 = stablehlo.reshape %456 : (tensor<6x2048x6x128xf32>) -> tensor<6x2048x768xf32>
    %458 = stablehlo.transpose %arg22, dims = [1, 0] : (tensor<768x768xf32>) -> tensor<768x768xf32>
    %459 = stablehlo.reshape %457 : (tensor<6x2048x768xf32>) -> tensor<12288x768xf32>
    %460 = stablehlo.dot_general %459, %458, contracting_dims = [1] x [0] : (tensor<12288x768xf32>, tensor<768x768xf32>) -> tensor<12288x768xf32>
    %461 = stablehlo.reshape %460 : (tensor<12288x768xf32>) -> tensor<6x2048x768xf32>
    %462 = stablehlo.add %374, %461 : tensor<6x2048x768xf32>
    %463 = stablehlo.power %462, %4 : tensor<6x2048x768xf32>
    %464 = stablehlo.reduce(%463 init: %cst) applies stablehlo.add across dimensions = [2] : (tensor<6x2048x768xf32>, tensor<f32>) -> tensor<6x2048xf32>
    %465 = stablehlo.reshape %464 : (tensor<6x2048xf32>) -> tensor<6x2048x1xf32>
    %466 = stablehlo.divide %465, %10 : tensor<6x2048x1xf32>
    %467 = stablehlo.add %466, %14 : tensor<6x2048x1xf32>
    %468 = stablehlo.rsqrt %467 : tensor<6x2048x1xf32>
    %469 = stablehlo.broadcast_in_dim %468, dims = [0, 1, 2] : (tensor<6x2048x1xf32>) -> tensor<6x2048x768xf32>
    %470 = stablehlo.multiply %462, %469 : tensor<6x2048x768xf32>
    %471 = stablehlo.transpose %arg23, dims = [1, 0] : (tensor<3072x768xf32>) -> tensor<768x3072xf32>
    %472 = stablehlo.reshape %470 : (tensor<6x2048x768xf32>) -> tensor<12288x768xf32>
    %473 = stablehlo.dot_general %472, %471, contracting_dims = [1] x [0] : (tensor<12288x768xf32>, tensor<768x3072xf32>) -> tensor<12288x3072xf32>
    %474 = stablehlo.reshape %473 : (tensor<12288x3072xf32>) -> tensor<6x2048x3072xf32>
    %475 = stablehlo.maximum %474, %cst_11 : tensor<6x2048x3072xf32>
    %476 = stablehlo.power %475, %154 : tensor<6x2048x3072xf32>
    %477 = stablehlo.transpose %arg24, dims = [1, 0] : (tensor<768x3072xf32>) -> tensor<3072x768xf32>
    %478 = stablehlo.reshape %476 : (tensor<6x2048x3072xf32>) -> tensor<12288x3072xf32>
    %479 = stablehlo.dot_general %478, %477, contracting_dims = [1] x [0] : (tensor<12288x3072xf32>, tensor<3072x768xf32>) -> tensor<12288x768xf32>
    %480 = stablehlo.reshape %479 : (tensor<12288x768xf32>) -> tensor<6x2048x768xf32>
    %481 = stablehlo.add %462, %480 : tensor<6x2048x768xf32>
    %482 = stablehlo.power %481, %4 : tensor<6x2048x768xf32>
    %483 = stablehlo.reduce(%482 init: %cst) applies stablehlo.add across dimensions = [2] : (tensor<6x2048x768xf32>, tensor<f32>) -> tensor<6x2048xf32>
    %484 = stablehlo.reshape %483 : (tensor<6x2048xf32>) -> tensor<6x2048x1xf32>
    %485 = stablehlo.divide %484, %10 : tensor<6x2048x1xf32>
    %486 = stablehlo.add %485, %14 : tensor<6x2048x1xf32>
    %487 = stablehlo.rsqrt %486 : tensor<6x2048x1xf32>
    %488 = stablehlo.broadcast_in_dim %487, dims = [0, 1, 2] : (tensor<6x2048x1xf32>) -> tensor<6x2048x768xf32>
    %489 = stablehlo.multiply %481, %488 : tensor<6x2048x768xf32>
    %490 = stablehlo.transpose %arg25, dims = [1, 0] : (tensor<768x768xf32>) -> tensor<768x768xf32>
    %491 = stablehlo.reshape %489 : (tensor<6x2048x768xf32>) -> tensor<12288x768xf32>
    %492 = stablehlo.dot_general %491, %490, contracting_dims = [1] x [0] : (tensor<12288x768xf32>, tensor<768x768xf32>) -> tensor<12288x768xf32>
    %493 = stablehlo.reshape %492 : (tensor<12288x768xf32>) -> tensor<6x2048x768xf32>
    %494 = stablehlo.reshape %493 : (tensor<6x2048x768xf32>) -> tensor<6x2048x6x128xf32>
    %495 = stablehlo.transpose %arg26, dims = [1, 0] : (tensor<768x768xf32>) -> tensor<768x768xf32>
    %496 = stablehlo.dot_general %491, %495, contracting_dims = [1] x [0] : (tensor<12288x768xf32>, tensor<768x768xf32>) -> tensor<12288x768xf32>
    %497 = stablehlo.reshape %496 : (tensor<12288x768xf32>) -> tensor<6x2048x768xf32>
    %498 = stablehlo.reshape %497 : (tensor<6x2048x768xf32>) -> tensor<6x2048x6x128xf32>
    %499 = stablehlo.transpose %arg27, dims = [1, 0] : (tensor<768x768xf32>) -> tensor<768x768xf32>
    %500 = stablehlo.dot_general %491, %499, contracting_dims = [1] x [0] : (tensor<12288x768xf32>, tensor<768x768xf32>) -> tensor<12288x768xf32>
    %501 = stablehlo.reshape %500 : (tensor<12288x768xf32>) -> tensor<6x2048x768xf32>
    %502 = stablehlo.reshape %501 : (tensor<6x2048x768xf32>) -> tensor<6x2048x6x128xf32>
    %503 = stablehlo.slice %494 [0:6, 0:2048, 0:6, 0:64] : (tensor<6x2048x6x128xf32>) -> tensor<6x2048x6x64xf32>
    %504 = stablehlo.slice %494 [0:6, 0:2048, 0:6, 64:128] : (tensor<6x2048x6x128xf32>) -> tensor<6x2048x6x64xf32>
    %505 = stablehlo.multiply %503, %43 : tensor<6x2048x6x64xf32>
    %506 = stablehlo.multiply %504, %46 : tensor<6x2048x6x64xf32>
    %507 = stablehlo.add %505, %506 : tensor<6x2048x6x64xf32>
    %508 = stablehlo.multiply %503, %51 : tensor<6x2048x6x64xf32>
    %509 = stablehlo.multiply %504, %43 : tensor<6x2048x6x64xf32>
    %510 = stablehlo.add %508, %509 : tensor<6x2048x6x64xf32>
    %511 = stablehlo.concatenate %507, %510, dim = 3 : (tensor<6x2048x6x64xf32>, tensor<6x2048x6x64xf32>) -> tensor<6x2048x6x128xf32>
    %512 = stablehlo.slice %498 [0:6, 0:2048, 0:6, 0:64] : (tensor<6x2048x6x128xf32>) -> tensor<6x2048x6x64xf32>
    %513 = stablehlo.slice %498 [0:6, 0:2048, 0:6, 64:128] : (tensor<6x2048x6x128xf32>) -> tensor<6x2048x6x64xf32>
    %514 = stablehlo.multiply %512, %43 : tensor<6x2048x6x64xf32>
    %515 = stablehlo.multiply %513, %46 : tensor<6x2048x6x64xf32>
    %516 = stablehlo.add %514, %515 : tensor<6x2048x6x64xf32>
    %517 = stablehlo.multiply %512, %51 : tensor<6x2048x6x64xf32>
    %518 = stablehlo.multiply %513, %43 : tensor<6x2048x6x64xf32>
    %519 = stablehlo.add %517, %518 : tensor<6x2048x6x64xf32>
    %520 = stablehlo.concatenate %516, %519, dim = 3 : (tensor<6x2048x6x64xf32>, tensor<6x2048x6x64xf32>) -> tensor<6x2048x6x128xf32>
    %521 = stablehlo.power %511, %65 : tensor<6x2048x6x128xf32>
    %522 = stablehlo.reduce(%521 init: %cst) applies stablehlo.add across dimensions = [3] : (tensor<6x2048x6x128xf32>, tensor<f32>) -> tensor<6x2048x6xf32>
    %523 = stablehlo.reshape %522 : (tensor<6x2048x6xf32>) -> tensor<6x2048x6x1xf32>
    %524 = stablehlo.divide %523, %71 : tensor<6x2048x6x1xf32>
    %525 = stablehlo.add %524, %73 : tensor<6x2048x6x1xf32>
    %526 = stablehlo.rsqrt %525 : tensor<6x2048x6x1xf32>
    %527 = stablehlo.broadcast_in_dim %526, dims = [0, 1, 2, 3] : (tensor<6x2048x6x1xf32>) -> tensor<6x2048x6x128xf32>
    %528 = stablehlo.multiply %511, %527 : tensor<6x2048x6x128xf32>
    %529 = stablehlo.power %520, %65 : tensor<6x2048x6x128xf32>
    %530 = stablehlo.reduce(%529 init: %cst) applies stablehlo.add across dimensions = [3] : (tensor<6x2048x6x128xf32>, tensor<f32>) -> tensor<6x2048x6xf32>
    %531 = stablehlo.reshape %530 : (tensor<6x2048x6xf32>) -> tensor<6x2048x6x1xf32>
    %532 = stablehlo.divide %531, %71 : tensor<6x2048x6x1xf32>
    %533 = stablehlo.add %532, %73 : tensor<6x2048x6x1xf32>
    %534 = stablehlo.rsqrt %533 : tensor<6x2048x6x1xf32>
    %535 = stablehlo.broadcast_in_dim %534, dims = [0, 1, 2, 3] : (tensor<6x2048x6x1xf32>) -> tensor<6x2048x6x128xf32>
    %536 = stablehlo.multiply %520, %535 : tensor<6x2048x6x128xf32>
    %537 = stablehlo.transpose %528, dims = [0, 2, 1, 3] : (tensor<6x2048x6x128xf32>) -> tensor<6x6x2048x128xf32>
    %538 = stablehlo.transpose %536, dims = [0, 2, 1, 3] : (tensor<6x2048x6x128xf32>) -> tensor<6x6x2048x128xf32>
    %539 = stablehlo.transpose %502, dims = [0, 2, 1, 3] : (tensor<6x2048x6x128xf32>) -> tensor<6x6x2048x128xf32>
    %540 = stablehlo.transpose %538, dims = [0, 1, 3, 2] : (tensor<6x6x2048x128xf32>) -> tensor<6x6x128x2048xf32>
    %541 = stablehlo.reshape %537 : (tensor<6x6x2048x128xf32>) -> tensor<36x2048x128xf32>
    %542 = stablehlo.reshape %540 : (tensor<6x6x128x2048xf32>) -> tensor<36x128x2048xf32>
    %543 = stablehlo.broadcast_in_dim %542, dims = [0, 1, 2] : (tensor<36x128x2048xf32>) -> tensor<36x128x2048xf32>
    %544 = stablehlo.dot_general %541, %543, batching_dims = [0] x [0], contracting_dims = [2] x [1] : (tensor<36x2048x128xf32>, tensor<36x128x2048xf32>) -> tensor<36x2048x2048xf32>
    %545 = stablehlo.reshape %544 : (tensor<36x2048x2048xf32>) -> tensor<6x6x2048x2048xf32>
    %546 = stablehlo.multiply %545, %97 : tensor<6x6x2048x2048xf32>
    %547 = stablehlo.broadcast_in_dim %546, dims = [0, 1, 2, 3] : (tensor<6x6x2048x2048xf32>) -> tensor<6x6x2048x2048xf32>
    %548 = stablehlo.select %116, %117, %547 : tensor<6x6x2048x2048xi1>, tensor<6x6x2048x2048xf32>
    %549 = stablehlo.reduce(%548 init: %cst_7) applies stablehlo.maximum across dimensions = [3] : (tensor<6x6x2048x2048xf32>, tensor<f32>) -> tensor<6x6x2048xf32>
    %550 = stablehlo.reshape %549 : (tensor<6x6x2048xf32>) -> tensor<6x6x2048x1xf32>
    %551 = stablehlo.broadcast_in_dim %550, dims = [0, 1, 2, 3] : (tensor<6x6x2048x1xf32>) -> tensor<6x6x2048x2048xf32>
    %552 = stablehlo.subtract %548, %551 : tensor<6x6x2048x2048xf32>
    %553 = stablehlo.exponential %552 : tensor<6x6x2048x2048xf32>
    %554 = stablehlo.reduce(%553 init: %cst) applies stablehlo.add across dimensions = [3] : (tensor<6x6x2048x2048xf32>, tensor<f32>) -> tensor<6x6x2048xf32>
    %555 = stablehlo.reshape %554 : (tensor<6x6x2048xf32>) -> tensor<6x6x2048x1xf32>
    %556 = stablehlo.broadcast_in_dim %555, dims = [0, 1, 2, 3] : (tensor<6x6x2048x1xf32>) -> tensor<6x6x2048x2048xf32>
    %557 = stablehlo.divide %553, %556 : tensor<6x6x2048x2048xf32>
    %558 = stablehlo.reshape %557 : (tensor<6x6x2048x2048xf32>) -> tensor<36x2048x2048xf32>
    %559 = stablehlo.reshape %539 : (tensor<6x6x2048x128xf32>) -> tensor<36x2048x128xf32>
    %560 = stablehlo.broadcast_in_dim %559, dims = [0, 1, 2] : (tensor<36x2048x128xf32>) -> tensor<36x2048x128xf32>
    %561 = stablehlo.dot_general %558, %560, batching_dims = [0] x [0], contracting_dims = [2] x [1] : (tensor<36x2048x2048xf32>, tensor<36x2048x128xf32>) -> tensor<36x2048x128xf32>
    %562 = stablehlo.reshape %561 : (tensor<36x2048x128xf32>) -> tensor<6x6x2048x128xf32>
    %563 = stablehlo.transpose %562, dims = [0, 2, 1, 3] : (tensor<6x6x2048x128xf32>) -> tensor<6x2048x6x128xf32>
    %564 = stablehlo.reshape %563 : (tensor<6x2048x6x128xf32>) -> tensor<6x2048x768xf32>
    %565 = stablehlo.transpose %arg28, dims = [1, 0] : (tensor<768x768xf32>) -> tensor<768x768xf32>
    %566 = stablehlo.reshape %564 : (tensor<6x2048x768xf32>) -> tensor<12288x768xf32>
    %567 = stablehlo.dot_general %566, %565, contracting_dims = [1] x [0] : (tensor<12288x768xf32>, tensor<768x768xf32>) -> tensor<12288x768xf32>
    %568 = stablehlo.reshape %567 : (tensor<12288x768xf32>) -> tensor<6x2048x768xf32>
    %569 = stablehlo.add %481, %568 : tensor<6x2048x768xf32>
    %570 = stablehlo.power %569, %4 : tensor<6x2048x768xf32>
    %571 = stablehlo.reduce(%570 init: %cst) applies stablehlo.add across dimensions = [2] : (tensor<6x2048x768xf32>, tensor<f32>) -> tensor<6x2048xf32>
    %572 = stablehlo.reshape %571 : (tensor<6x2048xf32>) -> tensor<6x2048x1xf32>
    %573 = stablehlo.divide %572, %10 : tensor<6x2048x1xf32>
    %574 = stablehlo.add %573, %14 : tensor<6x2048x1xf32>
    %575 = stablehlo.rsqrt %574 : tensor<6x2048x1xf32>
    %576 = stablehlo.broadcast_in_dim %575, dims = [0, 1, 2] : (tensor<6x2048x1xf32>) -> tensor<6x2048x768xf32>
    %577 = stablehlo.multiply %569, %576 : tensor<6x2048x768xf32>
    %578 = stablehlo.transpose %arg29, dims = [1, 0] : (tensor<3072x768xf32>) -> tensor<768x3072xf32>
    %579 = stablehlo.reshape %577 : (tensor<6x2048x768xf32>) -> tensor<12288x768xf32>
    %580 = stablehlo.dot_general %579, %578, contracting_dims = [1] x [0] : (tensor<12288x768xf32>, tensor<768x3072xf32>) -> tensor<12288x3072xf32>
    %581 = stablehlo.reshape %580 : (tensor<12288x3072xf32>) -> tensor<6x2048x3072xf32>
    %582 = stablehlo.maximum %581, %cst_11 : tensor<6x2048x3072xf32>
    %583 = stablehlo.power %582, %154 : tensor<6x2048x3072xf32>
    %584 = stablehlo.transpose %arg30, dims = [1, 0] : (tensor<768x3072xf32>) -> tensor<3072x768xf32>
    %585 = stablehlo.reshape %583 : (tensor<6x2048x3072xf32>) -> tensor<12288x3072xf32>
    %586 = stablehlo.dot_general %585, %584, contracting_dims = [1] x [0] : (tensor<12288x3072xf32>, tensor<3072x768xf32>) -> tensor<12288x768xf32>
    %587 = stablehlo.reshape %586 : (tensor<12288x768xf32>) -> tensor<6x2048x768xf32>
    %588 = stablehlo.add %569, %587 : tensor<6x2048x768xf32>
    %589 = stablehlo.power %588, %4 : tensor<6x2048x768xf32>
    %590 = stablehlo.reduce(%589 init: %cst) applies stablehlo.add across dimensions = [2] : (tensor<6x2048x768xf32>, tensor<f32>) -> tensor<6x2048xf32>
    %591 = stablehlo.reshape %590 : (tensor<6x2048xf32>) -> tensor<6x2048x1xf32>
    %592 = stablehlo.divide %591, %10 : tensor<6x2048x1xf32>
    %593 = stablehlo.add %592, %14 : tensor<6x2048x1xf32>
    %594 = stablehlo.rsqrt %593 : tensor<6x2048x1xf32>
    %595 = stablehlo.broadcast_in_dim %594, dims = [0, 1, 2] : (tensor<6x2048x1xf32>) -> tensor<6x2048x768xf32>
    %596 = stablehlo.multiply %588, %595 : tensor<6x2048x768xf32>
    %597 = stablehlo.transpose %arg31, dims = [1, 0] : (tensor<768x768xf32>) -> tensor<768x768xf32>
    %598 = stablehlo.reshape %596 : (tensor<6x2048x768xf32>) -> tensor<12288x768xf32>
    %599 = stablehlo.dot_general %598, %597, contracting_dims = [1] x [0] : (tensor<12288x768xf32>, tensor<768x768xf32>) -> tensor<12288x768xf32>
    %600 = stablehlo.reshape %599 : (tensor<12288x768xf32>) -> tensor<6x2048x768xf32>
    %601 = stablehlo.reshape %600 : (tensor<6x2048x768xf32>) -> tensor<6x2048x6x128xf32>
    %602 = stablehlo.transpose %arg32, dims = [1, 0] : (tensor<768x768xf32>) -> tensor<768x768xf32>
    %603 = stablehlo.dot_general %598, %602, contracting_dims = [1] x [0] : (tensor<12288x768xf32>, tensor<768x768xf32>) -> tensor<12288x768xf32>
    %604 = stablehlo.reshape %603 : (tensor<12288x768xf32>) -> tensor<6x2048x768xf32>
    %605 = stablehlo.reshape %604 : (tensor<6x2048x768xf32>) -> tensor<6x2048x6x128xf32>
    %606 = stablehlo.transpose %arg33, dims = [1, 0] : (tensor<768x768xf32>) -> tensor<768x768xf32>
    %607 = stablehlo.dot_general %598, %606, contracting_dims = [1] x [0] : (tensor<12288x768xf32>, tensor<768x768xf32>) -> tensor<12288x768xf32>
    %608 = stablehlo.reshape %607 : (tensor<12288x768xf32>) -> tensor<6x2048x768xf32>
    %609 = stablehlo.reshape %608 : (tensor<6x2048x768xf32>) -> tensor<6x2048x6x128xf32>
    %610 = stablehlo.slice %601 [0:6, 0:2048, 0:6, 0:64] : (tensor<6x2048x6x128xf32>) -> tensor<6x2048x6x64xf32>
    %611 = stablehlo.slice %601 [0:6, 0:2048, 0:6, 64:128] : (tensor<6x2048x6x128xf32>) -> tensor<6x2048x6x64xf32>
    %612 = stablehlo.multiply %610, %43 : tensor<6x2048x6x64xf32>
    %613 = stablehlo.multiply %611, %46 : tensor<6x2048x6x64xf32>
    %614 = stablehlo.add %612, %613 : tensor<6x2048x6x64xf32>
    %615 = stablehlo.multiply %610, %51 : tensor<6x2048x6x64xf32>
    %616 = stablehlo.multiply %611, %43 : tensor<6x2048x6x64xf32>
    %617 = stablehlo.add %615, %616 : tensor<6x2048x6x64xf32>
    %618 = stablehlo.concatenate %614, %617, dim = 3 : (tensor<6x2048x6x64xf32>, tensor<6x2048x6x64xf32>) -> tensor<6x2048x6x128xf32>
    %619 = stablehlo.slice %605 [0:6, 0:2048, 0:6, 0:64] : (tensor<6x2048x6x128xf32>) -> tensor<6x2048x6x64xf32>
    %620 = stablehlo.slice %605 [0:6, 0:2048, 0:6, 64:128] : (tensor<6x2048x6x128xf32>) -> tensor<6x2048x6x64xf32>
    %621 = stablehlo.multiply %619, %43 : tensor<6x2048x6x64xf32>
    %622 = stablehlo.multiply %620, %46 : tensor<6x2048x6x64xf32>
    %623 = stablehlo.add %621, %622 : tensor<6x2048x6x64xf32>
    %624 = stablehlo.multiply %619, %51 : tensor<6x2048x6x64xf32>
    %625 = stablehlo.multiply %620, %43 : tensor<6x2048x6x64xf32>
    %626 = stablehlo.add %624, %625 : tensor<6x2048x6x64xf32>
    %627 = stablehlo.concatenate %623, %626, dim = 3 : (tensor<6x2048x6x64xf32>, tensor<6x2048x6x64xf32>) -> tensor<6x2048x6x128xf32>
    %628 = stablehlo.power %618, %65 : tensor<6x2048x6x128xf32>
    %629 = stablehlo.reduce(%628 init: %cst) applies stablehlo.add across dimensions = [3] : (tensor<6x2048x6x128xf32>, tensor<f32>) -> tensor<6x2048x6xf32>
    %630 = stablehlo.reshape %629 : (tensor<6x2048x6xf32>) -> tensor<6x2048x6x1xf32>
    %631 = stablehlo.divide %630, %71 : tensor<6x2048x6x1xf32>
    %632 = stablehlo.add %631, %73 : tensor<6x2048x6x1xf32>
    %633 = stablehlo.rsqrt %632 : tensor<6x2048x6x1xf32>
    %634 = stablehlo.broadcast_in_dim %633, dims = [0, 1, 2, 3] : (tensor<6x2048x6x1xf32>) -> tensor<6x2048x6x128xf32>
    %635 = stablehlo.multiply %618, %634 : tensor<6x2048x6x128xf32>
    %636 = stablehlo.power %627, %65 : tensor<6x2048x6x128xf32>
    %637 = stablehlo.reduce(%636 init: %cst) applies stablehlo.add across dimensions = [3] : (tensor<6x2048x6x128xf32>, tensor<f32>) -> tensor<6x2048x6xf32>
    %638 = stablehlo.reshape %637 : (tensor<6x2048x6xf32>) -> tensor<6x2048x6x1xf32>
    %639 = stablehlo.divide %638, %71 : tensor<6x2048x6x1xf32>
    %640 = stablehlo.add %639, %73 : tensor<6x2048x6x1xf32>
    %641 = stablehlo.rsqrt %640 : tensor<6x2048x6x1xf32>
    %642 = stablehlo.broadcast_in_dim %641, dims = [0, 1, 2, 3] : (tensor<6x2048x6x1xf32>) -> tensor<6x2048x6x128xf32>
    %643 = stablehlo.multiply %627, %642 : tensor<6x2048x6x128xf32>
    %644 = stablehlo.transpose %635, dims = [0, 2, 1, 3] : (tensor<6x2048x6x128xf32>) -> tensor<6x6x2048x128xf32>
    %645 = stablehlo.transpose %643, dims = [0, 2, 1, 3] : (tensor<6x2048x6x128xf32>) -> tensor<6x6x2048x128xf32>
    %646 = stablehlo.transpose %609, dims = [0, 2, 1, 3] : (tensor<6x2048x6x128xf32>) -> tensor<6x6x2048x128xf32>
    %647 = stablehlo.transpose %645, dims = [0, 1, 3, 2] : (tensor<6x6x2048x128xf32>) -> tensor<6x6x128x2048xf32>
    %648 = stablehlo.reshape %644 : (tensor<6x6x2048x128xf32>) -> tensor<36x2048x128xf32>
    %649 = stablehlo.reshape %647 : (tensor<6x6x128x2048xf32>) -> tensor<36x128x2048xf32>
    %650 = stablehlo.broadcast_in_dim %649, dims = [0, 1, 2] : (tensor<36x128x2048xf32>) -> tensor<36x128x2048xf32>
    %651 = stablehlo.dot_general %648, %650, batching_dims = [0] x [0], contracting_dims = [2] x [1] : (tensor<36x2048x128xf32>, tensor<36x128x2048xf32>) -> tensor<36x2048x2048xf32>
    %652 = stablehlo.reshape %651 : (tensor<36x2048x2048xf32>) -> tensor<6x6x2048x2048xf32>
    %653 = stablehlo.multiply %652, %97 : tensor<6x6x2048x2048xf32>
    %654 = stablehlo.broadcast_in_dim %653, dims = [0, 1, 2, 3] : (tensor<6x6x2048x2048xf32>) -> tensor<6x6x2048x2048xf32>
    %655 = stablehlo.select %116, %117, %654 : tensor<6x6x2048x2048xi1>, tensor<6x6x2048x2048xf32>
    %656 = stablehlo.reduce(%655 init: %cst_7) applies stablehlo.maximum across dimensions = [3] : (tensor<6x6x2048x2048xf32>, tensor<f32>) -> tensor<6x6x2048xf32>
    %657 = stablehlo.reshape %656 : (tensor<6x6x2048xf32>) -> tensor<6x6x2048x1xf32>
    %658 = stablehlo.broadcast_in_dim %657, dims = [0, 1, 2, 3] : (tensor<6x6x2048x1xf32>) -> tensor<6x6x2048x2048xf32>
    %659 = stablehlo.subtract %655, %658 : tensor<6x6x2048x2048xf32>
    %660 = stablehlo.exponential %659 : tensor<6x6x2048x2048xf32>
    %661 = stablehlo.reduce(%660 init: %cst) applies stablehlo.add across dimensions = [3] : (tensor<6x6x2048x2048xf32>, tensor<f32>) -> tensor<6x6x2048xf32>
    %662 = stablehlo.reshape %661 : (tensor<6x6x2048xf32>) -> tensor<6x6x2048x1xf32>
    %663 = stablehlo.broadcast_in_dim %662, dims = [0, 1, 2, 3] : (tensor<6x6x2048x1xf32>) -> tensor<6x6x2048x2048xf32>
    %664 = stablehlo.divide %660, %663 : tensor<6x6x2048x2048xf32>
    %665 = stablehlo.reshape %664 : (tensor<6x6x2048x2048xf32>) -> tensor<36x2048x2048xf32>
    %666 = stablehlo.reshape %646 : (tensor<6x6x2048x128xf32>) -> tensor<36x2048x128xf32>
    %667 = stablehlo.broadcast_in_dim %666, dims = [0, 1, 2] : (tensor<36x2048x128xf32>) -> tensor<36x2048x128xf32>
    %668 = stablehlo.dot_general %665, %667, batching_dims = [0] x [0], contracting_dims = [2] x [1] : (tensor<36x2048x2048xf32>, tensor<36x2048x128xf32>) -> tensor<36x2048x128xf32>
    %669 = stablehlo.reshape %668 : (tensor<36x2048x128xf32>) -> tensor<6x6x2048x128xf32>
    %670 = stablehlo.transpose %669, dims = [0, 2, 1, 3] : (tensor<6x6x2048x128xf32>) -> tensor<6x2048x6x128xf32>
    %671 = stablehlo.reshape %670 : (tensor<6x2048x6x128xf32>) -> tensor<6x2048x768xf32>
    %672 = stablehlo.transpose %arg34, dims = [1, 0] : (tensor<768x768xf32>) -> tensor<768x768xf32>
    %673 = stablehlo.reshape %671 : (tensor<6x2048x768xf32>) -> tensor<12288x768xf32>
    %674 = stablehlo.dot_general %673, %672, contracting_dims = [1] x [0] : (tensor<12288x768xf32>, tensor<768x768xf32>) -> tensor<12288x768xf32>
    %675 = stablehlo.reshape %674 : (tensor<12288x768xf32>) -> tensor<6x2048x768xf32>
    %676 = stablehlo.add %588, %675 : tensor<6x2048x768xf32>
    %677 = stablehlo.power %676, %4 : tensor<6x2048x768xf32>
    %678 = stablehlo.reduce(%677 init: %cst) applies stablehlo.add across dimensions = [2] : (tensor<6x2048x768xf32>, tensor<f32>) -> tensor<6x2048xf32>
    %679 = stablehlo.reshape %678 : (tensor<6x2048xf32>) -> tensor<6x2048x1xf32>
    %680 = stablehlo.divide %679, %10 : tensor<6x2048x1xf32>
    %681 = stablehlo.add %680, %14 : tensor<6x2048x1xf32>
    %682 = stablehlo.rsqrt %681 : tensor<6x2048x1xf32>
    %683 = stablehlo.broadcast_in_dim %682, dims = [0, 1, 2] : (tensor<6x2048x1xf32>) -> tensor<6x2048x768xf32>
    %684 = stablehlo.multiply %676, %683 : tensor<6x2048x768xf32>
    %685 = stablehlo.transpose %arg35, dims = [1, 0] : (tensor<3072x768xf32>) -> tensor<768x3072xf32>
    %686 = stablehlo.reshape %684 : (tensor<6x2048x768xf32>) -> tensor<12288x768xf32>
    %687 = stablehlo.dot_general %686, %685, contracting_dims = [1] x [0] : (tensor<12288x768xf32>, tensor<768x3072xf32>) -> tensor<12288x3072xf32>
    %688 = stablehlo.reshape %687 : (tensor<12288x3072xf32>) -> tensor<6x2048x3072xf32>
    %689 = stablehlo.maximum %688, %cst_11 : tensor<6x2048x3072xf32>
    %690 = stablehlo.power %689, %154 : tensor<6x2048x3072xf32>
    %691 = stablehlo.transpose %arg36, dims = [1, 0] : (tensor<768x3072xf32>) -> tensor<3072x768xf32>
    %692 = stablehlo.reshape %690 : (tensor<6x2048x3072xf32>) -> tensor<12288x3072xf32>
    %693 = stablehlo.dot_general %692, %691, contracting_dims = [1] x [0] : (tensor<12288x3072xf32>, tensor<3072x768xf32>) -> tensor<12288x768xf32>
    %694 = stablehlo.reshape %693 : (tensor<12288x768xf32>) -> tensor<6x2048x768xf32>
    %695 = stablehlo.add %676, %694 : tensor<6x2048x768xf32>
    %696 = stablehlo.power %695, %4 : tensor<6x2048x768xf32>
    %697 = stablehlo.reduce(%696 init: %cst) applies stablehlo.add across dimensions = [2] : (tensor<6x2048x768xf32>, tensor<f32>) -> tensor<6x2048xf32>
    %698 = stablehlo.reshape %697 : (tensor<6x2048xf32>) -> tensor<6x2048x1xf32>
    %699 = stablehlo.divide %698, %10 : tensor<6x2048x1xf32>
    %700 = stablehlo.add %699, %14 : tensor<6x2048x1xf32>
    %701 = stablehlo.rsqrt %700 : tensor<6x2048x1xf32>
    %702 = stablehlo.broadcast_in_dim %701, dims = [0, 1, 2] : (tensor<6x2048x1xf32>) -> tensor<6x2048x768xf32>
    %703 = stablehlo.multiply %695, %702 : tensor<6x2048x768xf32>
    %704 = stablehlo.transpose %arg37, dims = [1, 0] : (tensor<768x768xf32>) -> tensor<768x768xf32>
    %705 = stablehlo.reshape %703 : (tensor<6x2048x768xf32>) -> tensor<12288x768xf32>
    %706 = stablehlo.dot_general %705, %704, contracting_dims = [1] x [0] : (tensor<12288x768xf32>, tensor<768x768xf32>) -> tensor<12288x768xf32>
    %707 = stablehlo.reshape %706 : (tensor<12288x768xf32>) -> tensor<6x2048x768xf32>
    %708 = stablehlo.reshape %707 : (tensor<6x2048x768xf32>) -> tensor<6x2048x6x128xf32>
    %709 = stablehlo.transpose %arg38, dims = [1, 0] : (tensor<768x768xf32>) -> tensor<768x768xf32>
    %710 = stablehlo.dot_general %705, %709, contracting_dims = [1] x [0] : (tensor<12288x768xf32>, tensor<768x768xf32>) -> tensor<12288x768xf32>
    %711 = stablehlo.reshape %710 : (tensor<12288x768xf32>) -> tensor<6x2048x768xf32>
    %712 = stablehlo.reshape %711 : (tensor<6x2048x768xf32>) -> tensor<6x2048x6x128xf32>
    %713 = stablehlo.transpose %arg39, dims = [1, 0] : (tensor<768x768xf32>) -> tensor<768x768xf32>
    %714 = stablehlo.dot_general %705, %713, contracting_dims = [1] x [0] : (tensor<12288x768xf32>, tensor<768x768xf32>) -> tensor<12288x768xf32>
    %715 = stablehlo.reshape %714 : (tensor<12288x768xf32>) -> tensor<6x2048x768xf32>
    %716 = stablehlo.reshape %715 : (tensor<6x2048x768xf32>) -> tensor<6x2048x6x128xf32>
    %717 = stablehlo.slice %708 [0:6, 0:2048, 0:6, 0:64] : (tensor<6x2048x6x128xf32>) -> tensor<6x2048x6x64xf32>
    %718 = stablehlo.slice %708 [0:6, 0:2048, 0:6, 64:128] : (tensor<6x2048x6x128xf32>) -> tensor<6x2048x6x64xf32>
    %719 = stablehlo.multiply %717, %43 : tensor<6x2048x6x64xf32>
    %720 = stablehlo.multiply %718, %46 : tensor<6x2048x6x64xf32>
    %721 = stablehlo.add %719, %720 : tensor<6x2048x6x64xf32>
    %722 = stablehlo.multiply %717, %51 : tensor<6x2048x6x64xf32>
    %723 = stablehlo.multiply %718, %43 : tensor<6x2048x6x64xf32>
    %724 = stablehlo.add %722, %723 : tensor<6x2048x6x64xf32>
    %725 = stablehlo.concatenate %721, %724, dim = 3 : (tensor<6x2048x6x64xf32>, tensor<6x2048x6x64xf32>) -> tensor<6x2048x6x128xf32>
    %726 = stablehlo.slice %712 [0:6, 0:2048, 0:6, 0:64] : (tensor<6x2048x6x128xf32>) -> tensor<6x2048x6x64xf32>
    %727 = stablehlo.slice %712 [0:6, 0:2048, 0:6, 64:128] : (tensor<6x2048x6x128xf32>) -> tensor<6x2048x6x64xf32>
    %728 = stablehlo.multiply %726, %43 : tensor<6x2048x6x64xf32>
    %729 = stablehlo.multiply %727, %46 : tensor<6x2048x6x64xf32>
    %730 = stablehlo.add %728, %729 : tensor<6x2048x6x64xf32>
    %731 = stablehlo.multiply %726, %51 : tensor<6x2048x6x64xf32>
    %732 = stablehlo.multiply %727, %43 : tensor<6x2048x6x64xf32>
    %733 = stablehlo.add %731, %732 : tensor<6x2048x6x64xf32>
    %734 = stablehlo.concatenate %730, %733, dim = 3 : (tensor<6x2048x6x64xf32>, tensor<6x2048x6x64xf32>) -> tensor<6x2048x6x128xf32>
    %735 = stablehlo.power %725, %65 : tensor<6x2048x6x128xf32>
    %736 = stablehlo.reduce(%735 init: %cst) applies stablehlo.add across dimensions = [3] : (tensor<6x2048x6x128xf32>, tensor<f32>) -> tensor<6x2048x6xf32>
    %737 = stablehlo.reshape %736 : (tensor<6x2048x6xf32>) -> tensor<6x2048x6x1xf32>
    %738 = stablehlo.divide %737, %71 : tensor<6x2048x6x1xf32>
    %739 = stablehlo.add %738, %73 : tensor<6x2048x6x1xf32>
    %740 = stablehlo.rsqrt %739 : tensor<6x2048x6x1xf32>
    %741 = stablehlo.broadcast_in_dim %740, dims = [0, 1, 2, 3] : (tensor<6x2048x6x1xf32>) -> tensor<6x2048x6x128xf32>
    %742 = stablehlo.multiply %725, %741 : tensor<6x2048x6x128xf32>
    %743 = stablehlo.power %734, %65 : tensor<6x2048x6x128xf32>
    %744 = stablehlo.reduce(%743 init: %cst) applies stablehlo.add across dimensions = [3] : (tensor<6x2048x6x128xf32>, tensor<f32>) -> tensor<6x2048x6xf32>
    %745 = stablehlo.reshape %744 : (tensor<6x2048x6xf32>) -> tensor<6x2048x6x1xf32>
    %746 = stablehlo.divide %745, %71 : tensor<6x2048x6x1xf32>
    %747 = stablehlo.add %746, %73 : tensor<6x2048x6x1xf32>
    %748 = stablehlo.rsqrt %747 : tensor<6x2048x6x1xf32>
    %749 = stablehlo.broadcast_in_dim %748, dims = [0, 1, 2, 3] : (tensor<6x2048x6x1xf32>) -> tensor<6x2048x6x128xf32>
    %750 = stablehlo.multiply %734, %749 : tensor<6x2048x6x128xf32>
    %751 = stablehlo.transpose %742, dims = [0, 2, 1, 3] : (tensor<6x2048x6x128xf32>) -> tensor<6x6x2048x128xf32>
    %752 = stablehlo.transpose %750, dims = [0, 2, 1, 3] : (tensor<6x2048x6x128xf32>) -> tensor<6x6x2048x128xf32>
    %753 = stablehlo.transpose %716, dims = [0, 2, 1, 3] : (tensor<6x2048x6x128xf32>) -> tensor<6x6x2048x128xf32>
    %754 = stablehlo.transpose %752, dims = [0, 1, 3, 2] : (tensor<6x6x2048x128xf32>) -> tensor<6x6x128x2048xf32>
    %755 = stablehlo.reshape %751 : (tensor<6x6x2048x128xf32>) -> tensor<36x2048x128xf32>
    %756 = stablehlo.reshape %754 : (tensor<6x6x128x2048xf32>) -> tensor<36x128x2048xf32>
    %757 = stablehlo.broadcast_in_dim %756, dims = [0, 1, 2] : (tensor<36x128x2048xf32>) -> tensor<36x128x2048xf32>
    %758 = stablehlo.dot_general %755, %757, batching_dims = [0] x [0], contracting_dims = [2] x [1] : (tensor<36x2048x128xf32>, tensor<36x128x2048xf32>) -> tensor<36x2048x2048xf32>
    %759 = stablehlo.reshape %758 : (tensor<36x2048x2048xf32>) -> tensor<6x6x2048x2048xf32>
    %760 = stablehlo.multiply %759, %97 : tensor<6x6x2048x2048xf32>
    %761 = stablehlo.broadcast_in_dim %760, dims = [0, 1, 2, 3] : (tensor<6x6x2048x2048xf32>) -> tensor<6x6x2048x2048xf32>
    %762 = stablehlo.select %116, %117, %761 : tensor<6x6x2048x2048xi1>, tensor<6x6x2048x2048xf32>
    %763 = stablehlo.reduce(%762 init: %cst_7) applies stablehlo.maximum across dimensions = [3] : (tensor<6x6x2048x2048xf32>, tensor<f32>) -> tensor<6x6x2048xf32>
    %764 = stablehlo.reshape %763 : (tensor<6x6x2048xf32>) -> tensor<6x6x2048x1xf32>
    %765 = stablehlo.broadcast_in_dim %764, dims = [0, 1, 2, 3] : (tensor<6x6x2048x1xf32>) -> tensor<6x6x2048x2048xf32>
    %766 = stablehlo.subtract %762, %765 : tensor<6x6x2048x2048xf32>
    %767 = stablehlo.exponential %766 : tensor<6x6x2048x2048xf32>
    %768 = stablehlo.reduce(%767 init: %cst) applies stablehlo.add across dimensions = [3] : (tensor<6x6x2048x2048xf32>, tensor<f32>) -> tensor<6x6x2048xf32>
    %769 = stablehlo.reshape %768 : (tensor<6x6x2048xf32>) -> tensor<6x6x2048x1xf32>
    %770 = stablehlo.broadcast_in_dim %769, dims = [0, 1, 2, 3] : (tensor<6x6x2048x1xf32>) -> tensor<6x6x2048x2048xf32>
    %771 = stablehlo.divide %767, %770 : tensor<6x6x2048x2048xf32>
    %772 = stablehlo.reshape %771 : (tensor<6x6x2048x2048xf32>) -> tensor<36x2048x2048xf32>
    %773 = stablehlo.reshape %753 : (tensor<6x6x2048x128xf32>) -> tensor<36x2048x128xf32>
    %774 = stablehlo.broadcast_in_dim %773, dims = [0, 1, 2] : (tensor<36x2048x128xf32>) -> tensor<36x2048x128xf32>
    %775 = stablehlo.dot_general %772, %774, batching_dims = [0] x [0], contracting_dims = [2] x [1] : (tensor<36x2048x2048xf32>, tensor<36x2048x128xf32>) -> tensor<36x2048x128xf32>
    %776 = stablehlo.reshape %775 : (tensor<36x2048x128xf32>) -> tensor<6x6x2048x128xf32>
    %777 = stablehlo.transpose %776, dims = [0, 2, 1, 3] : (tensor<6x6x2048x128xf32>) -> tensor<6x2048x6x128xf32>
    %778 = stablehlo.reshape %777 : (tensor<6x2048x6x128xf32>) -> tensor<6x2048x768xf32>
    %779 = stablehlo.transpose %arg40, dims = [1, 0] : (tensor<768x768xf32>) -> tensor<768x768xf32>
    %780 = stablehlo.reshape %778 : (tensor<6x2048x768xf32>) -> tensor<12288x768xf32>
    %781 = stablehlo.dot_general %780, %779, contracting_dims = [1] x [0] : (tensor<12288x768xf32>, tensor<768x768xf32>) -> tensor<12288x768xf32>
    %782 = stablehlo.reshape %781 : (tensor<12288x768xf32>) -> tensor<6x2048x768xf32>
    %783 = stablehlo.add %695, %782 : tensor<6x2048x768xf32>
    %784 = stablehlo.power %783, %4 : tensor<6x2048x768xf32>
    %785 = stablehlo.reduce(%784 init: %cst) applies stablehlo.add across dimensions = [2] : (tensor<6x2048x768xf32>, tensor<f32>) -> tensor<6x2048xf32>
    %786 = stablehlo.reshape %785 : (tensor<6x2048xf32>) -> tensor<6x2048x1xf32>
    %787 = stablehlo.divide %786, %10 : tensor<6x2048x1xf32>
    %788 = stablehlo.add %787, %14 : tensor<6x2048x1xf32>
    %789 = stablehlo.rsqrt %788 : tensor<6x2048x1xf32>
    %790 = stablehlo.broadcast_in_dim %789, dims = [0, 1, 2] : (tensor<6x2048x1xf32>) -> tensor<6x2048x768xf32>
    %791 = stablehlo.multiply %783, %790 : tensor<6x2048x768xf32>
    %792 = stablehlo.transpose %arg41, dims = [1, 0] : (tensor<3072x768xf32>) -> tensor<768x3072xf32>
    %793 = stablehlo.reshape %791 : (tensor<6x2048x768xf32>) -> tensor<12288x768xf32>
    %794 = stablehlo.dot_general %793, %792, contracting_dims = [1] x [0] : (tensor<12288x768xf32>, tensor<768x3072xf32>) -> tensor<12288x3072xf32>
    %795 = stablehlo.reshape %794 : (tensor<12288x3072xf32>) -> tensor<6x2048x3072xf32>
    %796 = stablehlo.maximum %795, %cst_11 : tensor<6x2048x3072xf32>
    %797 = stablehlo.power %796, %154 : tensor<6x2048x3072xf32>
    %798 = stablehlo.transpose %arg42, dims = [1, 0] : (tensor<768x3072xf32>) -> tensor<3072x768xf32>
    %799 = stablehlo.reshape %797 : (tensor<6x2048x3072xf32>) -> tensor<12288x3072xf32>
    %800 = stablehlo.dot_general %799, %798, contracting_dims = [1] x [0] : (tensor<12288x3072xf32>, tensor<3072x768xf32>) -> tensor<12288x768xf32>
    %801 = stablehlo.reshape %800 : (tensor<12288x768xf32>) -> tensor<6x2048x768xf32>
    %802 = stablehlo.add %783, %801 : tensor<6x2048x768xf32>
    %803 = stablehlo.power %802, %4 : tensor<6x2048x768xf32>
    %804 = stablehlo.reduce(%803 init: %cst) applies stablehlo.add across dimensions = [2] : (tensor<6x2048x768xf32>, tensor<f32>) -> tensor<6x2048xf32>
    %805 = stablehlo.reshape %804 : (tensor<6x2048xf32>) -> tensor<6x2048x1xf32>
    %806 = stablehlo.divide %805, %10 : tensor<6x2048x1xf32>
    %807 = stablehlo.add %806, %14 : tensor<6x2048x1xf32>
    %808 = stablehlo.rsqrt %807 : tensor<6x2048x1xf32>
    %809 = stablehlo.broadcast_in_dim %808, dims = [0, 1, 2] : (tensor<6x2048x1xf32>) -> tensor<6x2048x768xf32>
    %810 = stablehlo.multiply %802, %809 : tensor<6x2048x768xf32>
    %811 = stablehlo.transpose %arg43, dims = [1, 0] : (tensor<768x768xf32>) -> tensor<768x768xf32>
    %812 = stablehlo.reshape %810 : (tensor<6x2048x768xf32>) -> tensor<12288x768xf32>
    %813 = stablehlo.dot_general %812, %811, contracting_dims = [1] x [0] : (tensor<12288x768xf32>, tensor<768x768xf32>) -> tensor<12288x768xf32>
    %814 = stablehlo.reshape %813 : (tensor<12288x768xf32>) -> tensor<6x2048x768xf32>
    %815 = stablehlo.reshape %814 : (tensor<6x2048x768xf32>) -> tensor<6x2048x6x128xf32>
    %816 = stablehlo.transpose %arg44, dims = [1, 0] : (tensor<768x768xf32>) -> tensor<768x768xf32>
    %817 = stablehlo.dot_general %812, %816, contracting_dims = [1] x [0] : (tensor<12288x768xf32>, tensor<768x768xf32>) -> tensor<12288x768xf32>
    %818 = stablehlo.reshape %817 : (tensor<12288x768xf32>) -> tensor<6x2048x768xf32>
    %819 = stablehlo.reshape %818 : (tensor<6x2048x768xf32>) -> tensor<6x2048x6x128xf32>
    %820 = stablehlo.transpose %arg45, dims = [1, 0] : (tensor<768x768xf32>) -> tensor<768x768xf32>
    %821 = stablehlo.dot_general %812, %820, contracting_dims = [1] x [0] : (tensor<12288x768xf32>, tensor<768x768xf32>) -> tensor<12288x768xf32>
    %822 = stablehlo.reshape %821 : (tensor<12288x768xf32>) -> tensor<6x2048x768xf32>
    %823 = stablehlo.reshape %822 : (tensor<6x2048x768xf32>) -> tensor<6x2048x6x128xf32>
    %824 = stablehlo.slice %815 [0:6, 0:2048, 0:6, 0:64] : (tensor<6x2048x6x128xf32>) -> tensor<6x2048x6x64xf32>
    %825 = stablehlo.slice %815 [0:6, 0:2048, 0:6, 64:128] : (tensor<6x2048x6x128xf32>) -> tensor<6x2048x6x64xf32>
    %826 = stablehlo.multiply %824, %43 : tensor<6x2048x6x64xf32>
    %827 = stablehlo.multiply %825, %46 : tensor<6x2048x6x64xf32>
    %828 = stablehlo.add %826, %827 : tensor<6x2048x6x64xf32>
    %829 = stablehlo.multiply %824, %51 : tensor<6x2048x6x64xf32>
    %830 = stablehlo.multiply %825, %43 : tensor<6x2048x6x64xf32>
    %831 = stablehlo.add %829, %830 : tensor<6x2048x6x64xf32>
    %832 = stablehlo.concatenate %828, %831, dim = 3 : (tensor<6x2048x6x64xf32>, tensor<6x2048x6x64xf32>) -> tensor<6x2048x6x128xf32>
    %833 = stablehlo.slice %819 [0:6, 0:2048, 0:6, 0:64] : (tensor<6x2048x6x128xf32>) -> tensor<6x2048x6x64xf32>
    %834 = stablehlo.slice %819 [0:6, 0:2048, 0:6, 64:128] : (tensor<6x2048x6x128xf32>) -> tensor<6x2048x6x64xf32>
    %835 = stablehlo.multiply %833, %43 : tensor<6x2048x6x64xf32>
    %836 = stablehlo.multiply %834, %46 : tensor<6x2048x6x64xf32>
    %837 = stablehlo.add %835, %836 : tensor<6x2048x6x64xf32>
    %838 = stablehlo.multiply %833, %51 : tensor<6x2048x6x64xf32>
    %839 = stablehlo.multiply %834, %43 : tensor<6x2048x6x64xf32>
    %840 = stablehlo.add %838, %839 : tensor<6x2048x6x64xf32>
    %841 = stablehlo.concatenate %837, %840, dim = 3 : (tensor<6x2048x6x64xf32>, tensor<6x2048x6x64xf32>) -> tensor<6x2048x6x128xf32>
    %842 = stablehlo.power %832, %65 : tensor<6x2048x6x128xf32>
    %843 = stablehlo.reduce(%842 init: %cst) applies stablehlo.add across dimensions = [3] : (tensor<6x2048x6x128xf32>, tensor<f32>) -> tensor<6x2048x6xf32>
    %844 = stablehlo.reshape %843 : (tensor<6x2048x6xf32>) -> tensor<6x2048x6x1xf32>
    %845 = stablehlo.divide %844, %71 : tensor<6x2048x6x1xf32>
    %846 = stablehlo.add %845, %73 : tensor<6x2048x6x1xf32>
    %847 = stablehlo.rsqrt %846 : tensor<6x2048x6x1xf32>
    %848 = stablehlo.broadcast_in_dim %847, dims = [0, 1, 2, 3] : (tensor<6x2048x6x1xf32>) -> tensor<6x2048x6x128xf32>
    %849 = stablehlo.multiply %832, %848 : tensor<6x2048x6x128xf32>
    %850 = stablehlo.power %841, %65 : tensor<6x2048x6x128xf32>
    %851 = stablehlo.reduce(%850 init: %cst) applies stablehlo.add across dimensions = [3] : (tensor<6x2048x6x128xf32>, tensor<f32>) -> tensor<6x2048x6xf32>
    %852 = stablehlo.reshape %851 : (tensor<6x2048x6xf32>) -> tensor<6x2048x6x1xf32>
    %853 = stablehlo.divide %852, %71 : tensor<6x2048x6x1xf32>
    %854 = stablehlo.add %853, %73 : tensor<6x2048x6x1xf32>
    %855 = stablehlo.rsqrt %854 : tensor<6x2048x6x1xf32>
    %856 = stablehlo.broadcast_in_dim %855, dims = [0, 1, 2, 3] : (tensor<6x2048x6x1xf32>) -> tensor<6x2048x6x128xf32>
    %857 = stablehlo.multiply %841, %856 : tensor<6x2048x6x128xf32>
    %858 = stablehlo.transpose %849, dims = [0, 2, 1, 3] : (tensor<6x2048x6x128xf32>) -> tensor<6x6x2048x128xf32>
    %859 = stablehlo.transpose %857, dims = [0, 2, 1, 3] : (tensor<6x2048x6x128xf32>) -> tensor<6x6x2048x128xf32>
    %860 = stablehlo.transpose %823, dims = [0, 2, 1, 3] : (tensor<6x2048x6x128xf32>) -> tensor<6x6x2048x128xf32>
    %861 = stablehlo.transpose %859, dims = [0, 1, 3, 2] : (tensor<6x6x2048x128xf32>) -> tensor<6x6x128x2048xf32>
    %862 = stablehlo.reshape %858 : (tensor<6x6x2048x128xf32>) -> tensor<36x2048x128xf32>
    %863 = stablehlo.reshape %861 : (tensor<6x6x128x2048xf32>) -> tensor<36x128x2048xf32>
    %864 = stablehlo.broadcast_in_dim %863, dims = [0, 1, 2] : (tensor<36x128x2048xf32>) -> tensor<36x128x2048xf32>
    %865 = stablehlo.dot_general %862, %864, batching_dims = [0] x [0], contracting_dims = [2] x [1] : (tensor<36x2048x128xf32>, tensor<36x128x2048xf32>) -> tensor<36x2048x2048xf32>
    %866 = stablehlo.reshape %865 : (tensor<36x2048x2048xf32>) -> tensor<6x6x2048x2048xf32>
    %867 = stablehlo.multiply %866, %97 : tensor<6x6x2048x2048xf32>
    %868 = stablehlo.broadcast_in_dim %867, dims = [0, 1, 2, 3] : (tensor<6x6x2048x2048xf32>) -> tensor<6x6x2048x2048xf32>
    %869 = stablehlo.select %116, %117, %868 : tensor<6x6x2048x2048xi1>, tensor<6x6x2048x2048xf32>
    %870 = stablehlo.reduce(%869 init: %cst_7) applies stablehlo.maximum across dimensions = [3] : (tensor<6x6x2048x2048xf32>, tensor<f32>) -> tensor<6x6x2048xf32>
    %871 = stablehlo.reshape %870 : (tensor<6x6x2048xf32>) -> tensor<6x6x2048x1xf32>
    %872 = stablehlo.broadcast_in_dim %871, dims = [0, 1, 2, 3] : (tensor<6x6x2048x1xf32>) -> tensor<6x6x2048x2048xf32>
    %873 = stablehlo.subtract %869, %872 : tensor<6x6x2048x2048xf32>
    %874 = stablehlo.exponential %873 : tensor<6x6x2048x2048xf32>
    %875 = stablehlo.reduce(%874 init: %cst) applies stablehlo.add across dimensions = [3] : (tensor<6x6x2048x2048xf32>, tensor<f32>) -> tensor<6x6x2048xf32>
    %876 = stablehlo.reshape %875 : (tensor<6x6x2048xf32>) -> tensor<6x6x2048x1xf32>
    %877 = stablehlo.broadcast_in_dim %876, dims = [0, 1, 2, 3] : (tensor<6x6x2048x1xf32>) -> tensor<6x6x2048x2048xf32>
    %878 = stablehlo.divide %874, %877 : tensor<6x6x2048x2048xf32>
    %879 = stablehlo.reshape %878 : (tensor<6x6x2048x2048xf32>) -> tensor<36x2048x2048xf32>
    %880 = stablehlo.reshape %860 : (tensor<6x6x2048x128xf32>) -> tensor<36x2048x128xf32>
    %881 = stablehlo.broadcast_in_dim %880, dims = [0, 1, 2] : (tensor<36x2048x128xf32>) -> tensor<36x2048x128xf32>
    %882 = stablehlo.dot_general %879, %881, batching_dims = [0] x [0], contracting_dims = [2] x [1] : (tensor<36x2048x2048xf32>, tensor<36x2048x128xf32>) -> tensor<36x2048x128xf32>
    %883 = stablehlo.reshape %882 : (tensor<36x2048x128xf32>) -> tensor<6x6x2048x128xf32>
    %884 = stablehlo.transpose %883, dims = [0, 2, 1, 3] : (tensor<6x6x2048x128xf32>) -> tensor<6x2048x6x128xf32>
    %885 = stablehlo.reshape %884 : (tensor<6x2048x6x128xf32>) -> tensor<6x2048x768xf32>
    %886 = stablehlo.transpose %arg46, dims = [1, 0] : (tensor<768x768xf32>) -> tensor<768x768xf32>
    %887 = stablehlo.reshape %885 : (tensor<6x2048x768xf32>) -> tensor<12288x768xf32>
    %888 = stablehlo.dot_general %887, %886, contracting_dims = [1] x [0] : (tensor<12288x768xf32>, tensor<768x768xf32>) -> tensor<12288x768xf32>
    %889 = stablehlo.reshape %888 : (tensor<12288x768xf32>) -> tensor<6x2048x768xf32>
    %890 = stablehlo.add %802, %889 : tensor<6x2048x768xf32>
    %891 = stablehlo.power %890, %4 : tensor<6x2048x768xf32>
    %892 = stablehlo.reduce(%891 init: %cst) applies stablehlo.add across dimensions = [2] : (tensor<6x2048x768xf32>, tensor<f32>) -> tensor<6x2048xf32>
    %893 = stablehlo.reshape %892 : (tensor<6x2048xf32>) -> tensor<6x2048x1xf32>
    %894 = stablehlo.divide %893, %10 : tensor<6x2048x1xf32>
    %895 = stablehlo.add %894, %14 : tensor<6x2048x1xf32>
    %896 = stablehlo.rsqrt %895 : tensor<6x2048x1xf32>
    %897 = stablehlo.broadcast_in_dim %896, dims = [0, 1, 2] : (tensor<6x2048x1xf32>) -> tensor<6x2048x768xf32>
    %898 = stablehlo.multiply %890, %897 : tensor<6x2048x768xf32>
    %899 = stablehlo.transpose %arg47, dims = [1, 0] : (tensor<3072x768xf32>) -> tensor<768x3072xf32>
    %900 = stablehlo.reshape %898 : (tensor<6x2048x768xf32>) -> tensor<12288x768xf32>
    %901 = stablehlo.dot_general %900, %899, contracting_dims = [1] x [0] : (tensor<12288x768xf32>, tensor<768x3072xf32>) -> tensor<12288x3072xf32>
    %902 = stablehlo.reshape %901 : (tensor<12288x3072xf32>) -> tensor<6x2048x3072xf32>
    %903 = stablehlo.maximum %902, %cst_11 : tensor<6x2048x3072xf32>
    %904 = stablehlo.power %903, %154 : tensor<6x2048x3072xf32>
    %905 = stablehlo.transpose %arg48, dims = [1, 0] : (tensor<768x3072xf32>) -> tensor<3072x768xf32>
    %906 = stablehlo.reshape %904 : (tensor<6x2048x3072xf32>) -> tensor<12288x3072xf32>
    %907 = stablehlo.dot_general %906, %905, contracting_dims = [1] x [0] : (tensor<12288x3072xf32>, tensor<3072x768xf32>) -> tensor<12288x768xf32>
    %908 = stablehlo.reshape %907 : (tensor<12288x768xf32>) -> tensor<6x2048x768xf32>
    %909 = stablehlo.add %890, %908 : tensor<6x2048x768xf32>
    %910 = stablehlo.power %909, %4 : tensor<6x2048x768xf32>
    %911 = stablehlo.reduce(%910 init: %cst) applies stablehlo.add across dimensions = [2] : (tensor<6x2048x768xf32>, tensor<f32>) -> tensor<6x2048xf32>
    %912 = stablehlo.reshape %911 : (tensor<6x2048xf32>) -> tensor<6x2048x1xf32>
    %913 = stablehlo.divide %912, %10 : tensor<6x2048x1xf32>
    %914 = stablehlo.add %913, %14 : tensor<6x2048x1xf32>
    %915 = stablehlo.rsqrt %914 : tensor<6x2048x1xf32>
    %916 = stablehlo.broadcast_in_dim %915, dims = [0, 1, 2] : (tensor<6x2048x1xf32>) -> tensor<6x2048x768xf32>
    %917 = stablehlo.multiply %909, %916 : tensor<6x2048x768xf32>
    %918 = stablehlo.transpose %arg49, dims = [1, 0] : (tensor<768x768xf32>) -> tensor<768x768xf32>
    %919 = stablehlo.reshape %917 : (tensor<6x2048x768xf32>) -> tensor<12288x768xf32>
    %920 = stablehlo.dot_general %919, %918, contracting_dims = [1] x [0] : (tensor<12288x768xf32>, tensor<768x768xf32>) -> tensor<12288x768xf32>
    %921 = stablehlo.reshape %920 : (tensor<12288x768xf32>) -> tensor<6x2048x768xf32>
    %922 = stablehlo.reshape %921 : (tensor<6x2048x768xf32>) -> tensor<6x2048x6x128xf32>
    %923 = stablehlo.transpose %arg50, dims = [1, 0] : (tensor<768x768xf32>) -> tensor<768x768xf32>
    %924 = stablehlo.dot_general %919, %923, contracting_dims = [1] x [0] : (tensor<12288x768xf32>, tensor<768x768xf32>) -> tensor<12288x768xf32>
    %925 = stablehlo.reshape %924 : (tensor<12288x768xf32>) -> tensor<6x2048x768xf32>
    %926 = stablehlo.reshape %925 : (tensor<6x2048x768xf32>) -> tensor<6x2048x6x128xf32>
    %927 = stablehlo.transpose %arg51, dims = [1, 0] : (tensor<768x768xf32>) -> tensor<768x768xf32>
    %928 = stablehlo.dot_general %919, %927, contracting_dims = [1] x [0] : (tensor<12288x768xf32>, tensor<768x768xf32>) -> tensor<12288x768xf32>
    %929 = stablehlo.reshape %928 : (tensor<12288x768xf32>) -> tensor<6x2048x768xf32>
    %930 = stablehlo.reshape %929 : (tensor<6x2048x768xf32>) -> tensor<6x2048x6x128xf32>
    %931 = stablehlo.slice %922 [0:6, 0:2048, 0:6, 0:64] : (tensor<6x2048x6x128xf32>) -> tensor<6x2048x6x64xf32>
    %932 = stablehlo.slice %922 [0:6, 0:2048, 0:6, 64:128] : (tensor<6x2048x6x128xf32>) -> tensor<6x2048x6x64xf32>
    %933 = stablehlo.multiply %931, %43 : tensor<6x2048x6x64xf32>
    %934 = stablehlo.multiply %932, %46 : tensor<6x2048x6x64xf32>
    %935 = stablehlo.add %933, %934 : tensor<6x2048x6x64xf32>
    %936 = stablehlo.multiply %931, %51 : tensor<6x2048x6x64xf32>
    %937 = stablehlo.multiply %932, %43 : tensor<6x2048x6x64xf32>
    %938 = stablehlo.add %936, %937 : tensor<6x2048x6x64xf32>
    %939 = stablehlo.concatenate %935, %938, dim = 3 : (tensor<6x2048x6x64xf32>, tensor<6x2048x6x64xf32>) -> tensor<6x2048x6x128xf32>
    %940 = stablehlo.slice %926 [0:6, 0:2048, 0:6, 0:64] : (tensor<6x2048x6x128xf32>) -> tensor<6x2048x6x64xf32>
    %941 = stablehlo.slice %926 [0:6, 0:2048, 0:6, 64:128] : (tensor<6x2048x6x128xf32>) -> tensor<6x2048x6x64xf32>
    %942 = stablehlo.multiply %940, %43 : tensor<6x2048x6x64xf32>
    %943 = stablehlo.multiply %941, %46 : tensor<6x2048x6x64xf32>
    %944 = stablehlo.add %942, %943 : tensor<6x2048x6x64xf32>
    %945 = stablehlo.multiply %940, %51 : tensor<6x2048x6x64xf32>
    %946 = stablehlo.multiply %941, %43 : tensor<6x2048x6x64xf32>
    %947 = stablehlo.add %945, %946 : tensor<6x2048x6x64xf32>
    %948 = stablehlo.concatenate %944, %947, dim = 3 : (tensor<6x2048x6x64xf32>, tensor<6x2048x6x64xf32>) -> tensor<6x2048x6x128xf32>
    %949 = stablehlo.power %939, %65 : tensor<6x2048x6x128xf32>
    %950 = stablehlo.reduce(%949 init: %cst) applies stablehlo.add across dimensions = [3] : (tensor<6x2048x6x128xf32>, tensor<f32>) -> tensor<6x2048x6xf32>
    %951 = stablehlo.reshape %950 : (tensor<6x2048x6xf32>) -> tensor<6x2048x6x1xf32>
    %952 = stablehlo.divide %951, %71 : tensor<6x2048x6x1xf32>
    %953 = stablehlo.add %952, %73 : tensor<6x2048x6x1xf32>
    %954 = stablehlo.rsqrt %953 : tensor<6x2048x6x1xf32>
    %955 = stablehlo.broadcast_in_dim %954, dims = [0, 1, 2, 3] : (tensor<6x2048x6x1xf32>) -> tensor<6x2048x6x128xf32>
    %956 = stablehlo.multiply %939, %955 : tensor<6x2048x6x128xf32>
    %957 = stablehlo.power %948, %65 : tensor<6x2048x6x128xf32>
    %958 = stablehlo.reduce(%957 init: %cst) applies stablehlo.add across dimensions = [3] : (tensor<6x2048x6x128xf32>, tensor<f32>) -> tensor<6x2048x6xf32>
    %959 = stablehlo.reshape %958 : (tensor<6x2048x6xf32>) -> tensor<6x2048x6x1xf32>
    %960 = stablehlo.divide %959, %71 : tensor<6x2048x6x1xf32>
    %961 = stablehlo.add %960, %73 : tensor<6x2048x6x1xf32>
    %962 = stablehlo.rsqrt %961 : tensor<6x2048x6x1xf32>
    %963 = stablehlo.broadcast_in_dim %962, dims = [0, 1, 2, 3] : (tensor<6x2048x6x1xf32>) -> tensor<6x2048x6x128xf32>
    %964 = stablehlo.multiply %948, %963 : tensor<6x2048x6x128xf32>
    %965 = stablehlo.transpose %956, dims = [0, 2, 1, 3] : (tensor<6x2048x6x128xf32>) -> tensor<6x6x2048x128xf32>
    %966 = stablehlo.transpose %964, dims = [0, 2, 1, 3] : (tensor<6x2048x6x128xf32>) -> tensor<6x6x2048x128xf32>
    %967 = stablehlo.transpose %930, dims = [0, 2, 1, 3] : (tensor<6x2048x6x128xf32>) -> tensor<6x6x2048x128xf32>
    %968 = stablehlo.transpose %966, dims = [0, 1, 3, 2] : (tensor<6x6x2048x128xf32>) -> tensor<6x6x128x2048xf32>
    %969 = stablehlo.reshape %965 : (tensor<6x6x2048x128xf32>) -> tensor<36x2048x128xf32>
    %970 = stablehlo.reshape %968 : (tensor<6x6x128x2048xf32>) -> tensor<36x128x2048xf32>
    %971 = stablehlo.broadcast_in_dim %970, dims = [0, 1, 2] : (tensor<36x128x2048xf32>) -> tensor<36x128x2048xf32>
    %972 = stablehlo.dot_general %969, %971, batching_dims = [0] x [0], contracting_dims = [2] x [1] : (tensor<36x2048x128xf32>, tensor<36x128x2048xf32>) -> tensor<36x2048x2048xf32>
    %973 = stablehlo.reshape %972 : (tensor<36x2048x2048xf32>) -> tensor<6x6x2048x2048xf32>
    %974 = stablehlo.multiply %973, %97 : tensor<6x6x2048x2048xf32>
    %975 = stablehlo.broadcast_in_dim %974, dims = [0, 1, 2, 3] : (tensor<6x6x2048x2048xf32>) -> tensor<6x6x2048x2048xf32>
    %976 = stablehlo.select %116, %117, %975 : tensor<6x6x2048x2048xi1>, tensor<6x6x2048x2048xf32>
    %977 = stablehlo.reduce(%976 init: %cst_7) applies stablehlo.maximum across dimensions = [3] : (tensor<6x6x2048x2048xf32>, tensor<f32>) -> tensor<6x6x2048xf32>
    %978 = stablehlo.reshape %977 : (tensor<6x6x2048xf32>) -> tensor<6x6x2048x1xf32>
    %979 = stablehlo.broadcast_in_dim %978, dims = [0, 1, 2, 3] : (tensor<6x6x2048x1xf32>) -> tensor<6x6x2048x2048xf32>
    %980 = stablehlo.subtract %976, %979 : tensor<6x6x2048x2048xf32>
    %981 = stablehlo.exponential %980 : tensor<6x6x2048x2048xf32>
    %982 = stablehlo.reduce(%981 init: %cst) applies stablehlo.add across dimensions = [3] : (tensor<6x6x2048x2048xf32>, tensor<f32>) -> tensor<6x6x2048xf32>
    %983 = stablehlo.reshape %982 : (tensor<6x6x2048xf32>) -> tensor<6x6x2048x1xf32>
    %984 = stablehlo.broadcast_in_dim %983, dims = [0, 1, 2, 3] : (tensor<6x6x2048x1xf32>) -> tensor<6x6x2048x2048xf32>
    %985 = stablehlo.divide %981, %984 : tensor<6x6x2048x2048xf32>
    %986 = stablehlo.reshape %985 : (tensor<6x6x2048x2048xf32>) -> tensor<36x2048x2048xf32>
    %987 = stablehlo.reshape %967 : (tensor<6x6x2048x128xf32>) -> tensor<36x2048x128xf32>
    %988 = stablehlo.broadcast_in_dim %987, dims = [0, 1, 2] : (tensor<36x2048x128xf32>) -> tensor<36x2048x128xf32>
    %989 = stablehlo.dot_general %986, %988, batching_dims = [0] x [0], contracting_dims = [2] x [1] : (tensor<36x2048x2048xf32>, tensor<36x2048x128xf32>) -> tensor<36x2048x128xf32>
    %990 = stablehlo.reshape %989 : (tensor<36x2048x128xf32>) -> tensor<6x6x2048x128xf32>
    %991 = stablehlo.transpose %990, dims = [0, 2, 1, 3] : (tensor<6x6x2048x128xf32>) -> tensor<6x2048x6x128xf32>
    %992 = stablehlo.reshape %991 : (tensor<6x2048x6x128xf32>) -> tensor<6x2048x768xf32>
    %993 = stablehlo.transpose %arg52, dims = [1, 0] : (tensor<768x768xf32>) -> tensor<768x768xf32>
    %994 = stablehlo.reshape %992 : (tensor<6x2048x768xf32>) -> tensor<12288x768xf32>
    %995 = stablehlo.dot_general %994, %993, contracting_dims = [1] x [0] : (tensor<12288x768xf32>, tensor<768x768xf32>) -> tensor<12288x768xf32>
    %996 = stablehlo.reshape %995 : (tensor<12288x768xf32>) -> tensor<6x2048x768xf32>
    %997 = stablehlo.add %909, %996 : tensor<6x2048x768xf32>
    %998 = stablehlo.power %997, %4 : tensor<6x2048x768xf32>
    %999 = stablehlo.reduce(%998 init: %cst) applies stablehlo.add across dimensions = [2] : (tensor<6x2048x768xf32>, tensor<f32>) -> tensor<6x2048xf32>
    %1000 = stablehlo.reshape %999 : (tensor<6x2048xf32>) -> tensor<6x2048x1xf32>
    %1001 = stablehlo.divide %1000, %10 : tensor<6x2048x1xf32>
    %1002 = stablehlo.add %1001, %14 : tensor<6x2048x1xf32>
    %1003 = stablehlo.rsqrt %1002 : tensor<6x2048x1xf32>
    %1004 = stablehlo.broadcast_in_dim %1003, dims = [0, 1, 2] : (tensor<6x2048x1xf32>) -> tensor<6x2048x768xf32>
    %1005 = stablehlo.multiply %997, %1004 : tensor<6x2048x768xf32>
    %1006 = stablehlo.transpose %arg53, dims = [1, 0] : (tensor<3072x768xf32>) -> tensor<768x3072xf32>
    %1007 = stablehlo.reshape %1005 : (tensor<6x2048x768xf32>) -> tensor<12288x768xf32>
    %1008 = stablehlo.dot_general %1007, %1006, contracting_dims = [1] x [0] : (tensor<12288x768xf32>, tensor<768x3072xf32>) -> tensor<12288x3072xf32>
    %1009 = stablehlo.reshape %1008 : (tensor<12288x3072xf32>) -> tensor<6x2048x3072xf32>
    %1010 = stablehlo.maximum %1009, %cst_11 : tensor<6x2048x3072xf32>
    %1011 = stablehlo.power %1010, %154 : tensor<6x2048x3072xf32>
    %1012 = stablehlo.transpose %arg54, dims = [1, 0] : (tensor<768x3072xf32>) -> tensor<3072x768xf32>
    %1013 = stablehlo.reshape %1011 : (tensor<6x2048x3072xf32>) -> tensor<12288x3072xf32>
    %1014 = stablehlo.dot_general %1013, %1012, contracting_dims = [1] x [0] : (tensor<12288x3072xf32>, tensor<3072x768xf32>) -> tensor<12288x768xf32>
    %1015 = stablehlo.reshape %1014 : (tensor<12288x768xf32>) -> tensor<6x2048x768xf32>
    %1016 = stablehlo.add %997, %1015 : tensor<6x2048x768xf32>
    %1017 = stablehlo.power %1016, %4 : tensor<6x2048x768xf32>
    %1018 = stablehlo.reduce(%1017 init: %cst) applies stablehlo.add across dimensions = [2] : (tensor<6x2048x768xf32>, tensor<f32>) -> tensor<6x2048xf32>
    %1019 = stablehlo.reshape %1018 : (tensor<6x2048xf32>) -> tensor<6x2048x1xf32>
    %1020 = stablehlo.divide %1019, %10 : tensor<6x2048x1xf32>
    %1021 = stablehlo.add %1020, %14 : tensor<6x2048x1xf32>
    %1022 = stablehlo.rsqrt %1021 : tensor<6x2048x1xf32>
    %1023 = stablehlo.broadcast_in_dim %1022, dims = [0, 1, 2] : (tensor<6x2048x1xf32>) -> tensor<6x2048x768xf32>
    %1024 = stablehlo.multiply %1016, %1023 : tensor<6x2048x768xf32>
    %1025 = stablehlo.transpose %arg55, dims = [1, 0] : (tensor<768x768xf32>) -> tensor<768x768xf32>
    %1026 = stablehlo.reshape %1024 : (tensor<6x2048x768xf32>) -> tensor<12288x768xf32>
    %1027 = stablehlo.dot_general %1026, %1025, contracting_dims = [1] x [0] : (tensor<12288x768xf32>, tensor<768x768xf32>) -> tensor<12288x768xf32>
    %1028 = stablehlo.reshape %1027 : (tensor<12288x768xf32>) -> tensor<6x2048x768xf32>
    %1029 = stablehlo.reshape %1028 : (tensor<6x2048x768xf32>) -> tensor<6x2048x6x128xf32>
    %1030 = stablehlo.transpose %arg56, dims = [1, 0] : (tensor<768x768xf32>) -> tensor<768x768xf32>
    %1031 = stablehlo.dot_general %1026, %1030, contracting_dims = [1] x [0] : (tensor<12288x768xf32>, tensor<768x768xf32>) -> tensor<12288x768xf32>
    %1032 = stablehlo.reshape %1031 : (tensor<12288x768xf32>) -> tensor<6x2048x768xf32>
    %1033 = stablehlo.reshape %1032 : (tensor<6x2048x768xf32>) -> tensor<6x2048x6x128xf32>
    %1034 = stablehlo.transpose %arg57, dims = [1, 0] : (tensor<768x768xf32>) -> tensor<768x768xf32>
    %1035 = stablehlo.dot_general %1026, %1034, contracting_dims = [1] x [0] : (tensor<12288x768xf32>, tensor<768x768xf32>) -> tensor<12288x768xf32>
    %1036 = stablehlo.reshape %1035 : (tensor<12288x768xf32>) -> tensor<6x2048x768xf32>
    %1037 = stablehlo.reshape %1036 : (tensor<6x2048x768xf32>) -> tensor<6x2048x6x128xf32>
    %1038 = stablehlo.slice %1029 [0:6, 0:2048, 0:6, 0:64] : (tensor<6x2048x6x128xf32>) -> tensor<6x2048x6x64xf32>
    %1039 = stablehlo.slice %1029 [0:6, 0:2048, 0:6, 64:128] : (tensor<6x2048x6x128xf32>) -> tensor<6x2048x6x64xf32>
    %1040 = stablehlo.multiply %1038, %43 : tensor<6x2048x6x64xf32>
    %1041 = stablehlo.multiply %1039, %46 : tensor<6x2048x6x64xf32>
    %1042 = stablehlo.add %1040, %1041 : tensor<6x2048x6x64xf32>
    %1043 = stablehlo.multiply %1038, %51 : tensor<6x2048x6x64xf32>
    %1044 = stablehlo.multiply %1039, %43 : tensor<6x2048x6x64xf32>
    %1045 = stablehlo.add %1043, %1044 : tensor<6x2048x6x64xf32>
    %1046 = stablehlo.concatenate %1042, %1045, dim = 3 : (tensor<6x2048x6x64xf32>, tensor<6x2048x6x64xf32>) -> tensor<6x2048x6x128xf32>
    %1047 = stablehlo.slice %1033 [0:6, 0:2048, 0:6, 0:64] : (tensor<6x2048x6x128xf32>) -> tensor<6x2048x6x64xf32>
    %1048 = stablehlo.slice %1033 [0:6, 0:2048, 0:6, 64:128] : (tensor<6x2048x6x128xf32>) -> tensor<6x2048x6x64xf32>
    %1049 = stablehlo.multiply %1047, %43 : tensor<6x2048x6x64xf32>
    %1050 = stablehlo.multiply %1048, %46 : tensor<6x2048x6x64xf32>
    %1051 = stablehlo.add %1049, %1050 : tensor<6x2048x6x64xf32>
    %1052 = stablehlo.multiply %1047, %51 : tensor<6x2048x6x64xf32>
    %1053 = stablehlo.multiply %1048, %43 : tensor<6x2048x6x64xf32>
    %1054 = stablehlo.add %1052, %1053 : tensor<6x2048x6x64xf32>
    %1055 = stablehlo.concatenate %1051, %1054, dim = 3 : (tensor<6x2048x6x64xf32>, tensor<6x2048x6x64xf32>) -> tensor<6x2048x6x128xf32>
    %1056 = stablehlo.power %1046, %65 : tensor<6x2048x6x128xf32>
    %1057 = stablehlo.reduce(%1056 init: %cst) applies stablehlo.add across dimensions = [3] : (tensor<6x2048x6x128xf32>, tensor<f32>) -> tensor<6x2048x6xf32>
    %1058 = stablehlo.reshape %1057 : (tensor<6x2048x6xf32>) -> tensor<6x2048x6x1xf32>
    %1059 = stablehlo.divide %1058, %71 : tensor<6x2048x6x1xf32>
    %1060 = stablehlo.add %1059, %73 : tensor<6x2048x6x1xf32>
    %1061 = stablehlo.rsqrt %1060 : tensor<6x2048x6x1xf32>
    %1062 = stablehlo.broadcast_in_dim %1061, dims = [0, 1, 2, 3] : (tensor<6x2048x6x1xf32>) -> tensor<6x2048x6x128xf32>
    %1063 = stablehlo.multiply %1046, %1062 : tensor<6x2048x6x128xf32>
    %1064 = stablehlo.power %1055, %65 : tensor<6x2048x6x128xf32>
    %1065 = stablehlo.reduce(%1064 init: %cst) applies stablehlo.add across dimensions = [3] : (tensor<6x2048x6x128xf32>, tensor<f32>) -> tensor<6x2048x6xf32>
    %1066 = stablehlo.reshape %1065 : (tensor<6x2048x6xf32>) -> tensor<6x2048x6x1xf32>
    %1067 = stablehlo.divide %1066, %71 : tensor<6x2048x6x1xf32>
    %1068 = stablehlo.add %1067, %73 : tensor<6x2048x6x1xf32>
    %1069 = stablehlo.rsqrt %1068 : tensor<6x2048x6x1xf32>
    %1070 = stablehlo.broadcast_in_dim %1069, dims = [0, 1, 2, 3] : (tensor<6x2048x6x1xf32>) -> tensor<6x2048x6x128xf32>
    %1071 = stablehlo.multiply %1055, %1070 : tensor<6x2048x6x128xf32>
    %1072 = stablehlo.transpose %1063, dims = [0, 2, 1, 3] : (tensor<6x2048x6x128xf32>) -> tensor<6x6x2048x128xf32>
    %1073 = stablehlo.transpose %1071, dims = [0, 2, 1, 3] : (tensor<6x2048x6x128xf32>) -> tensor<6x6x2048x128xf32>
    %1074 = stablehlo.transpose %1037, dims = [0, 2, 1, 3] : (tensor<6x2048x6x128xf32>) -> tensor<6x6x2048x128xf32>
    %1075 = stablehlo.transpose %1073, dims = [0, 1, 3, 2] : (tensor<6x6x2048x128xf32>) -> tensor<6x6x128x2048xf32>
    %1076 = stablehlo.reshape %1072 : (tensor<6x6x2048x128xf32>) -> tensor<36x2048x128xf32>
    %1077 = stablehlo.reshape %1075 : (tensor<6x6x128x2048xf32>) -> tensor<36x128x2048xf32>
    %1078 = stablehlo.broadcast_in_dim %1077, dims = [0, 1, 2] : (tensor<36x128x2048xf32>) -> tensor<36x128x2048xf32>
    %1079 = stablehlo.dot_general %1076, %1078, batching_dims = [0] x [0], contracting_dims = [2] x [1] : (tensor<36x2048x128xf32>, tensor<36x128x2048xf32>) -> tensor<36x2048x2048xf32>
    %1080 = stablehlo.reshape %1079 : (tensor<36x2048x2048xf32>) -> tensor<6x6x2048x2048xf32>
    %1081 = stablehlo.multiply %1080, %97 : tensor<6x6x2048x2048xf32>
    %1082 = stablehlo.broadcast_in_dim %1081, dims = [0, 1, 2, 3] : (tensor<6x6x2048x2048xf32>) -> tensor<6x6x2048x2048xf32>
    %1083 = stablehlo.select %116, %117, %1082 : tensor<6x6x2048x2048xi1>, tensor<6x6x2048x2048xf32>
    %1084 = stablehlo.reduce(%1083 init: %cst_7) applies stablehlo.maximum across dimensions = [3] : (tensor<6x6x2048x2048xf32>, tensor<f32>) -> tensor<6x6x2048xf32>
    %1085 = stablehlo.reshape %1084 : (tensor<6x6x2048xf32>) -> tensor<6x6x2048x1xf32>
    %1086 = stablehlo.broadcast_in_dim %1085, dims = [0, 1, 2, 3] : (tensor<6x6x2048x1xf32>) -> tensor<6x6x2048x2048xf32>
    %1087 = stablehlo.subtract %1083, %1086 : tensor<6x6x2048x2048xf32>
    %1088 = stablehlo.exponential %1087 : tensor<6x6x2048x2048xf32>
    %1089 = stablehlo.reduce(%1088 init: %cst) applies stablehlo.add across dimensions = [3] : (tensor<6x6x2048x2048xf32>, tensor<f32>) -> tensor<6x6x2048xf32>
    %1090 = stablehlo.reshape %1089 : (tensor<6x6x2048xf32>) -> tensor<6x6x2048x1xf32>
    %1091 = stablehlo.broadcast_in_dim %1090, dims = [0, 1, 2, 3] : (tensor<6x6x2048x1xf32>) -> tensor<6x6x2048x2048xf32>
    %1092 = stablehlo.divide %1088, %1091 : tensor<6x6x2048x2048xf32>
    %1093 = stablehlo.reshape %1092 : (tensor<6x6x2048x2048xf32>) -> tensor<36x2048x2048xf32>
    %1094 = stablehlo.reshape %1074 : (tensor<6x6x2048x128xf32>) -> tensor<36x2048x128xf32>
    %1095 = stablehlo.broadcast_in_dim %1094, dims = [0, 1, 2] : (tensor<36x2048x128xf32>) -> tensor<36x2048x128xf32>
    %1096 = stablehlo.dot_general %1093, %1095, batching_dims = [0] x [0], contracting_dims = [2] x [1] : (tensor<36x2048x2048xf32>, tensor<36x2048x128xf32>) -> tensor<36x2048x128xf32>
    %1097 = stablehlo.reshape %1096 : (tensor<36x2048x128xf32>) -> tensor<6x6x2048x128xf32>
    %1098 = stablehlo.transpose %1097, dims = [0, 2, 1, 3] : (tensor<6x6x2048x128xf32>) -> tensor<6x2048x6x128xf32>
    %1099 = stablehlo.reshape %1098 : (tensor<6x2048x6x128xf32>) -> tensor<6x2048x768xf32>
    %1100 = stablehlo.transpose %arg58, dims = [1, 0] : (tensor<768x768xf32>) -> tensor<768x768xf32>
    %1101 = stablehlo.reshape %1099 : (tensor<6x2048x768xf32>) -> tensor<12288x768xf32>
    %1102 = stablehlo.dot_general %1101, %1100, contracting_dims = [1] x [0] : (tensor<12288x768xf32>, tensor<768x768xf32>) -> tensor<12288x768xf32>
    %1103 = stablehlo.reshape %1102 : (tensor<12288x768xf32>) -> tensor<6x2048x768xf32>
    %1104 = stablehlo.add %1016, %1103 : tensor<6x2048x768xf32>
    %1105 = stablehlo.power %1104, %4 : tensor<6x2048x768xf32>
    %1106 = stablehlo.reduce(%1105 init: %cst) applies stablehlo.add across dimensions = [2] : (tensor<6x2048x768xf32>, tensor<f32>) -> tensor<6x2048xf32>
    %1107 = stablehlo.reshape %1106 : (tensor<6x2048xf32>) -> tensor<6x2048x1xf32>
    %1108 = stablehlo.divide %1107, %10 : tensor<6x2048x1xf32>
    %1109 = stablehlo.add %1108, %14 : tensor<6x2048x1xf32>
    %1110 = stablehlo.rsqrt %1109 : tensor<6x2048x1xf32>
    %1111 = stablehlo.broadcast_in_dim %1110, dims = [0, 1, 2] : (tensor<6x2048x1xf32>) -> tensor<6x2048x768xf32>
    %1112 = stablehlo.multiply %1104, %1111 : tensor<6x2048x768xf32>
    %1113 = stablehlo.transpose %arg59, dims = [1, 0] : (tensor<3072x768xf32>) -> tensor<768x3072xf32>
    %1114 = stablehlo.reshape %1112 : (tensor<6x2048x768xf32>) -> tensor<12288x768xf32>
    %1115 = stablehlo.dot_general %1114, %1113, contracting_dims = [1] x [0] : (tensor<12288x768xf32>, tensor<768x3072xf32>) -> tensor<12288x3072xf32>
    %1116 = stablehlo.reshape %1115 : (tensor<12288x3072xf32>) -> tensor<6x2048x3072xf32>
    %1117 = stablehlo.maximum %1116, %cst_11 : tensor<6x2048x3072xf32>
    %1118 = stablehlo.power %1117, %154 : tensor<6x2048x3072xf32>
    %1119 = stablehlo.transpose %arg60, dims = [1, 0] : (tensor<768x3072xf32>) -> tensor<3072x768xf32>
    %1120 = stablehlo.reshape %1118 : (tensor<6x2048x3072xf32>) -> tensor<12288x3072xf32>
    %1121 = stablehlo.dot_general %1120, %1119, contracting_dims = [1] x [0] : (tensor<12288x3072xf32>, tensor<3072x768xf32>) -> tensor<12288x768xf32>
    %1122 = stablehlo.reshape %1121 : (tensor<12288x768xf32>) -> tensor<6x2048x768xf32>
    %1123 = stablehlo.add %1104, %1122 : tensor<6x2048x768xf32>
    %1124 = stablehlo.power %1123, %4 : tensor<6x2048x768xf32>
    %1125 = stablehlo.reduce(%1124 init: %cst) applies stablehlo.add across dimensions = [2] : (tensor<6x2048x768xf32>, tensor<f32>) -> tensor<6x2048xf32>
    %1126 = stablehlo.reshape %1125 : (tensor<6x2048xf32>) -> tensor<6x2048x1xf32>
    %1127 = stablehlo.divide %1126, %10 : tensor<6x2048x1xf32>
    %1128 = stablehlo.add %1127, %14 : tensor<6x2048x1xf32>
    %1129 = stablehlo.rsqrt %1128 : tensor<6x2048x1xf32>
    %1130 = stablehlo.broadcast_in_dim %1129, dims = [0, 1, 2] : (tensor<6x2048x1xf32>) -> tensor<6x2048x768xf32>
    %1131 = stablehlo.multiply %1123, %1130 : tensor<6x2048x768xf32>
    %1132 = stablehlo.transpose %arg61, dims = [1, 0] : (tensor<768x768xf32>) -> tensor<768x768xf32>
    %1133 = stablehlo.reshape %1131 : (tensor<6x2048x768xf32>) -> tensor<12288x768xf32>
    %1134 = stablehlo.dot_general %1133, %1132, contracting_dims = [1] x [0] : (tensor<12288x768xf32>, tensor<768x768xf32>) -> tensor<12288x768xf32>
    %1135 = stablehlo.reshape %1134 : (tensor<12288x768xf32>) -> tensor<6x2048x768xf32>
    %1136 = stablehlo.reshape %1135 : (tensor<6x2048x768xf32>) -> tensor<6x2048x6x128xf32>
    %1137 = stablehlo.transpose %arg62, dims = [1, 0] : (tensor<768x768xf32>) -> tensor<768x768xf32>
    %1138 = stablehlo.dot_general %1133, %1137, contracting_dims = [1] x [0] : (tensor<12288x768xf32>, tensor<768x768xf32>) -> tensor<12288x768xf32>
    %1139 = stablehlo.reshape %1138 : (tensor<12288x768xf32>) -> tensor<6x2048x768xf32>
    %1140 = stablehlo.reshape %1139 : (tensor<6x2048x768xf32>) -> tensor<6x2048x6x128xf32>
    %1141 = stablehlo.transpose %arg63, dims = [1, 0] : (tensor<768x768xf32>) -> tensor<768x768xf32>
    %1142 = stablehlo.dot_general %1133, %1141, contracting_dims = [1] x [0] : (tensor<12288x768xf32>, tensor<768x768xf32>) -> tensor<12288x768xf32>
    %1143 = stablehlo.reshape %1142 : (tensor<12288x768xf32>) -> tensor<6x2048x768xf32>
    %1144 = stablehlo.reshape %1143 : (tensor<6x2048x768xf32>) -> tensor<6x2048x6x128xf32>
    %1145 = stablehlo.slice %1136 [0:6, 0:2048, 0:6, 0:64] : (tensor<6x2048x6x128xf32>) -> tensor<6x2048x6x64xf32>
    %1146 = stablehlo.slice %1136 [0:6, 0:2048, 0:6, 64:128] : (tensor<6x2048x6x128xf32>) -> tensor<6x2048x6x64xf32>
    %1147 = stablehlo.multiply %1145, %43 : tensor<6x2048x6x64xf32>
    %1148 = stablehlo.multiply %1146, %46 : tensor<6x2048x6x64xf32>
    %1149 = stablehlo.add %1147, %1148 : tensor<6x2048x6x64xf32>
    %1150 = stablehlo.multiply %1145, %51 : tensor<6x2048x6x64xf32>
    %1151 = stablehlo.multiply %1146, %43 : tensor<6x2048x6x64xf32>
    %1152 = stablehlo.add %1150, %1151 : tensor<6x2048x6x64xf32>
    %1153 = stablehlo.concatenate %1149, %1152, dim = 3 : (tensor<6x2048x6x64xf32>, tensor<6x2048x6x64xf32>) -> tensor<6x2048x6x128xf32>
    %1154 = stablehlo.slice %1140 [0:6, 0:2048, 0:6, 0:64] : (tensor<6x2048x6x128xf32>) -> tensor<6x2048x6x64xf32>
    %1155 = stablehlo.slice %1140 [0:6, 0:2048, 0:6, 64:128] : (tensor<6x2048x6x128xf32>) -> tensor<6x2048x6x64xf32>
    %1156 = stablehlo.multiply %1154, %43 : tensor<6x2048x6x64xf32>
    %1157 = stablehlo.multiply %1155, %46 : tensor<6x2048x6x64xf32>
    %1158 = stablehlo.add %1156, %1157 : tensor<6x2048x6x64xf32>
    %1159 = stablehlo.multiply %1154, %51 : tensor<6x2048x6x64xf32>
    %1160 = stablehlo.multiply %1155, %43 : tensor<6x2048x6x64xf32>
    %1161 = stablehlo.add %1159, %1160 : tensor<6x2048x6x64xf32>
    %1162 = stablehlo.concatenate %1158, %1161, dim = 3 : (tensor<6x2048x6x64xf32>, tensor<6x2048x6x64xf32>) -> tensor<6x2048x6x128xf32>
    %1163 = stablehlo.power %1153, %65 : tensor<6x2048x6x128xf32>
    %1164 = stablehlo.reduce(%1163 init: %cst) applies stablehlo.add across dimensions = [3] : (tensor<6x2048x6x128xf32>, tensor<f32>) -> tensor<6x2048x6xf32>
    %1165 = stablehlo.reshape %1164 : (tensor<6x2048x6xf32>) -> tensor<6x2048x6x1xf32>
    %1166 = stablehlo.divide %1165, %71 : tensor<6x2048x6x1xf32>
    %1167 = stablehlo.add %1166, %73 : tensor<6x2048x6x1xf32>
    %1168 = stablehlo.rsqrt %1167 : tensor<6x2048x6x1xf32>
    %1169 = stablehlo.broadcast_in_dim %1168, dims = [0, 1, 2, 3] : (tensor<6x2048x6x1xf32>) -> tensor<6x2048x6x128xf32>
    %1170 = stablehlo.multiply %1153, %1169 : tensor<6x2048x6x128xf32>
    %1171 = stablehlo.power %1162, %65 : tensor<6x2048x6x128xf32>
    %1172 = stablehlo.reduce(%1171 init: %cst) applies stablehlo.add across dimensions = [3] : (tensor<6x2048x6x128xf32>, tensor<f32>) -> tensor<6x2048x6xf32>
    %1173 = stablehlo.reshape %1172 : (tensor<6x2048x6xf32>) -> tensor<6x2048x6x1xf32>
    %1174 = stablehlo.divide %1173, %71 : tensor<6x2048x6x1xf32>
    %1175 = stablehlo.add %1174, %73 : tensor<6x2048x6x1xf32>
    %1176 = stablehlo.rsqrt %1175 : tensor<6x2048x6x1xf32>
    %1177 = stablehlo.broadcast_in_dim %1176, dims = [0, 1, 2, 3] : (tensor<6x2048x6x1xf32>) -> tensor<6x2048x6x128xf32>
    %1178 = stablehlo.multiply %1162, %1177 : tensor<6x2048x6x128xf32>
    %1179 = stablehlo.transpose %1170, dims = [0, 2, 1, 3] : (tensor<6x2048x6x128xf32>) -> tensor<6x6x2048x128xf32>
    %1180 = stablehlo.transpose %1178, dims = [0, 2, 1, 3] : (tensor<6x2048x6x128xf32>) -> tensor<6x6x2048x128xf32>
    %1181 = stablehlo.transpose %1144, dims = [0, 2, 1, 3] : (tensor<6x2048x6x128xf32>) -> tensor<6x6x2048x128xf32>
    %1182 = stablehlo.transpose %1180, dims = [0, 1, 3, 2] : (tensor<6x6x2048x128xf32>) -> tensor<6x6x128x2048xf32>
    %1183 = stablehlo.reshape %1179 : (tensor<6x6x2048x128xf32>) -> tensor<36x2048x128xf32>
    %1184 = stablehlo.reshape %1182 : (tensor<6x6x128x2048xf32>) -> tensor<36x128x2048xf32>
    %1185 = stablehlo.broadcast_in_dim %1184, dims = [0, 1, 2] : (tensor<36x128x2048xf32>) -> tensor<36x128x2048xf32>
    %1186 = stablehlo.dot_general %1183, %1185, batching_dims = [0] x [0], contracting_dims = [2] x [1] : (tensor<36x2048x128xf32>, tensor<36x128x2048xf32>) -> tensor<36x2048x2048xf32>
    %1187 = stablehlo.reshape %1186 : (tensor<36x2048x2048xf32>) -> tensor<6x6x2048x2048xf32>
    %1188 = stablehlo.multiply %1187, %97 : tensor<6x6x2048x2048xf32>
    %1189 = stablehlo.broadcast_in_dim %1188, dims = [0, 1, 2, 3] : (tensor<6x6x2048x2048xf32>) -> tensor<6x6x2048x2048xf32>
    %1190 = stablehlo.select %116, %117, %1189 : tensor<6x6x2048x2048xi1>, tensor<6x6x2048x2048xf32>
    %1191 = stablehlo.reduce(%1190 init: %cst_7) applies stablehlo.maximum across dimensions = [3] : (tensor<6x6x2048x2048xf32>, tensor<f32>) -> tensor<6x6x2048xf32>
    %1192 = stablehlo.reshape %1191 : (tensor<6x6x2048xf32>) -> tensor<6x6x2048x1xf32>
    %1193 = stablehlo.broadcast_in_dim %1192, dims = [0, 1, 2, 3] : (tensor<6x6x2048x1xf32>) -> tensor<6x6x2048x2048xf32>
    %1194 = stablehlo.subtract %1190, %1193 : tensor<6x6x2048x2048xf32>
    %1195 = stablehlo.exponential %1194 : tensor<6x6x2048x2048xf32>
    %1196 = stablehlo.reduce(%1195 init: %cst) applies stablehlo.add across dimensions = [3] : (tensor<6x6x2048x2048xf32>, tensor<f32>) -> tensor<6x6x2048xf32>
    %1197 = stablehlo.reshape %1196 : (tensor<6x6x2048xf32>) -> tensor<6x6x2048x1xf32>
    %1198 = stablehlo.broadcast_in_dim %1197, dims = [0, 1, 2, 3] : (tensor<6x6x2048x1xf32>) -> tensor<6x6x2048x2048xf32>
    %1199 = stablehlo.divide %1195, %1198 : tensor<6x6x2048x2048xf32>
    %1200 = stablehlo.reshape %1199 : (tensor<6x6x2048x2048xf32>) -> tensor<36x2048x2048xf32>
    %1201 = stablehlo.reshape %1181 : (tensor<6x6x2048x128xf32>) -> tensor<36x2048x128xf32>
    %1202 = stablehlo.broadcast_in_dim %1201, dims = [0, 1, 2] : (tensor<36x2048x128xf32>) -> tensor<36x2048x128xf32>
    %1203 = stablehlo.dot_general %1200, %1202, batching_dims = [0] x [0], contracting_dims = [2] x [1] : (tensor<36x2048x2048xf32>, tensor<36x2048x128xf32>) -> tensor<36x2048x128xf32>
    %1204 = stablehlo.reshape %1203 : (tensor<36x2048x128xf32>) -> tensor<6x6x2048x128xf32>
    %1205 = stablehlo.transpose %1204, dims = [0, 2, 1, 3] : (tensor<6x6x2048x128xf32>) -> tensor<6x2048x6x128xf32>
    %1206 = stablehlo.reshape %1205 : (tensor<6x2048x6x128xf32>) -> tensor<6x2048x768xf32>
    %1207 = stablehlo.transpose %arg64, dims = [1, 0] : (tensor<768x768xf32>) -> tensor<768x768xf32>
    %1208 = stablehlo.reshape %1206 : (tensor<6x2048x768xf32>) -> tensor<12288x768xf32>
    %1209 = stablehlo.dot_general %1208, %1207, contracting_dims = [1] x [0] : (tensor<12288x768xf32>, tensor<768x768xf32>) -> tensor<12288x768xf32>
    %1210 = stablehlo.reshape %1209 : (tensor<12288x768xf32>) -> tensor<6x2048x768xf32>
    %1211 = stablehlo.add %1123, %1210 : tensor<6x2048x768xf32>
    %1212 = stablehlo.power %1211, %4 : tensor<6x2048x768xf32>
    %1213 = stablehlo.reduce(%1212 init: %cst) applies stablehlo.add across dimensions = [2] : (tensor<6x2048x768xf32>, tensor<f32>) -> tensor<6x2048xf32>
    %1214 = stablehlo.reshape %1213 : (tensor<6x2048xf32>) -> tensor<6x2048x1xf32>
    %1215 = stablehlo.divide %1214, %10 : tensor<6x2048x1xf32>
    %1216 = stablehlo.add %1215, %14 : tensor<6x2048x1xf32>
    %1217 = stablehlo.rsqrt %1216 : tensor<6x2048x1xf32>
    %1218 = stablehlo.broadcast_in_dim %1217, dims = [0, 1, 2] : (tensor<6x2048x1xf32>) -> tensor<6x2048x768xf32>
    %1219 = stablehlo.multiply %1211, %1218 : tensor<6x2048x768xf32>
    %1220 = stablehlo.transpose %arg65, dims = [1, 0] : (tensor<3072x768xf32>) -> tensor<768x3072xf32>
    %1221 = stablehlo.reshape %1219 : (tensor<6x2048x768xf32>) -> tensor<12288x768xf32>
    %1222 = stablehlo.dot_general %1221, %1220, contracting_dims = [1] x [0] : (tensor<12288x768xf32>, tensor<768x3072xf32>) -> tensor<12288x3072xf32>
    %1223 = stablehlo.reshape %1222 : (tensor<12288x3072xf32>) -> tensor<6x2048x3072xf32>
    %1224 = stablehlo.maximum %1223, %cst_11 : tensor<6x2048x3072xf32>
    %1225 = stablehlo.power %1224, %154 : tensor<6x2048x3072xf32>
    %1226 = stablehlo.transpose %arg66, dims = [1, 0] : (tensor<768x3072xf32>) -> tensor<3072x768xf32>
    %1227 = stablehlo.reshape %1225 : (tensor<6x2048x3072xf32>) -> tensor<12288x3072xf32>
    %1228 = stablehlo.dot_general %1227, %1226, contracting_dims = [1] x [0] : (tensor<12288x3072xf32>, tensor<3072x768xf32>) -> tensor<12288x768xf32>
    %1229 = stablehlo.reshape %1228 : (tensor<12288x768xf32>) -> tensor<6x2048x768xf32>
    %1230 = stablehlo.add %1211, %1229 : tensor<6x2048x768xf32>
    %1231 = stablehlo.power %1230, %4 : tensor<6x2048x768xf32>
    %1232 = stablehlo.reduce(%1231 init: %cst) applies stablehlo.add across dimensions = [2] : (tensor<6x2048x768xf32>, tensor<f32>) -> tensor<6x2048xf32>
    %1233 = stablehlo.reshape %1232 : (tensor<6x2048xf32>) -> tensor<6x2048x1xf32>
    %1234 = stablehlo.divide %1233, %10 : tensor<6x2048x1xf32>
    %1235 = stablehlo.add %1234, %14 : tensor<6x2048x1xf32>
    %1236 = stablehlo.rsqrt %1235 : tensor<6x2048x1xf32>
    %1237 = stablehlo.broadcast_in_dim %1236, dims = [0, 1, 2] : (tensor<6x2048x1xf32>) -> tensor<6x2048x768xf32>
    %1238 = stablehlo.multiply %1230, %1237 : tensor<6x2048x768xf32>
    %1239 = stablehlo.transpose %arg67, dims = [1, 0] : (tensor<768x768xf32>) -> tensor<768x768xf32>
    %1240 = stablehlo.reshape %1238 : (tensor<6x2048x768xf32>) -> tensor<12288x768xf32>
    %1241 = stablehlo.dot_general %1240, %1239, contracting_dims = [1] x [0] : (tensor<12288x768xf32>, tensor<768x768xf32>) -> tensor<12288x768xf32>
    %1242 = stablehlo.reshape %1241 : (tensor<12288x768xf32>) -> tensor<6x2048x768xf32>
    %1243 = stablehlo.reshape %1242 : (tensor<6x2048x768xf32>) -> tensor<6x2048x6x128xf32>
    %1244 = stablehlo.transpose %arg68, dims = [1, 0] : (tensor<768x768xf32>) -> tensor<768x768xf32>
    %1245 = stablehlo.dot_general %1240, %1244, contracting_dims = [1] x [0] : (tensor<12288x768xf32>, tensor<768x768xf32>) -> tensor<12288x768xf32>
    %1246 = stablehlo.reshape %1245 : (tensor<12288x768xf32>) -> tensor<6x2048x768xf32>
    %1247 = stablehlo.reshape %1246 : (tensor<6x2048x768xf32>) -> tensor<6x2048x6x128xf32>
    %1248 = stablehlo.transpose %arg69, dims = [1, 0] : (tensor<768x768xf32>) -> tensor<768x768xf32>
    %1249 = stablehlo.dot_general %1240, %1248, contracting_dims = [1] x [0] : (tensor<12288x768xf32>, tensor<768x768xf32>) -> tensor<12288x768xf32>
    %1250 = stablehlo.reshape %1249 : (tensor<12288x768xf32>) -> tensor<6x2048x768xf32>
    %1251 = stablehlo.reshape %1250 : (tensor<6x2048x768xf32>) -> tensor<6x2048x6x128xf32>
    %1252 = stablehlo.slice %1243 [0:6, 0:2048, 0:6, 0:64] : (tensor<6x2048x6x128xf32>) -> tensor<6x2048x6x64xf32>
    %1253 = stablehlo.slice %1243 [0:6, 0:2048, 0:6, 64:128] : (tensor<6x2048x6x128xf32>) -> tensor<6x2048x6x64xf32>
    %1254 = stablehlo.multiply %1252, %43 : tensor<6x2048x6x64xf32>
    %1255 = stablehlo.multiply %1253, %46 : tensor<6x2048x6x64xf32>
    %1256 = stablehlo.add %1254, %1255 : tensor<6x2048x6x64xf32>
    %1257 = stablehlo.multiply %1252, %51 : tensor<6x2048x6x64xf32>
    %1258 = stablehlo.multiply %1253, %43 : tensor<6x2048x6x64xf32>
    %1259 = stablehlo.add %1257, %1258 : tensor<6x2048x6x64xf32>
    %1260 = stablehlo.concatenate %1256, %1259, dim = 3 : (tensor<6x2048x6x64xf32>, tensor<6x2048x6x64xf32>) -> tensor<6x2048x6x128xf32>
    %1261 = stablehlo.slice %1247 [0:6, 0:2048, 0:6, 0:64] : (tensor<6x2048x6x128xf32>) -> tensor<6x2048x6x64xf32>
    %1262 = stablehlo.slice %1247 [0:6, 0:2048, 0:6, 64:128] : (tensor<6x2048x6x128xf32>) -> tensor<6x2048x6x64xf32>
    %1263 = stablehlo.multiply %1261, %43 : tensor<6x2048x6x64xf32>
    %1264 = stablehlo.multiply %1262, %46 : tensor<6x2048x6x64xf32>
    %1265 = stablehlo.add %1263, %1264 : tensor<6x2048x6x64xf32>
    %1266 = stablehlo.multiply %1261, %51 : tensor<6x2048x6x64xf32>
    %1267 = stablehlo.multiply %1262, %43 : tensor<6x2048x6x64xf32>
    %1268 = stablehlo.add %1266, %1267 : tensor<6x2048x6x64xf32>
    %1269 = stablehlo.concatenate %1265, %1268, dim = 3 : (tensor<6x2048x6x64xf32>, tensor<6x2048x6x64xf32>) -> tensor<6x2048x6x128xf32>
    %1270 = stablehlo.power %1260, %65 : tensor<6x2048x6x128xf32>
    %1271 = stablehlo.reduce(%1270 init: %cst) applies stablehlo.add across dimensions = [3] : (tensor<6x2048x6x128xf32>, tensor<f32>) -> tensor<6x2048x6xf32>
    %1272 = stablehlo.reshape %1271 : (tensor<6x2048x6xf32>) -> tensor<6x2048x6x1xf32>
    %1273 = stablehlo.divide %1272, %71 : tensor<6x2048x6x1xf32>
    %1274 = stablehlo.add %1273, %73 : tensor<6x2048x6x1xf32>
    %1275 = stablehlo.rsqrt %1274 : tensor<6x2048x6x1xf32>
    %1276 = stablehlo.broadcast_in_dim %1275, dims = [0, 1, 2, 3] : (tensor<6x2048x6x1xf32>) -> tensor<6x2048x6x128xf32>
    %1277 = stablehlo.multiply %1260, %1276 : tensor<6x2048x6x128xf32>
    %1278 = stablehlo.power %1269, %65 : tensor<6x2048x6x128xf32>
    %1279 = stablehlo.reduce(%1278 init: %cst) applies stablehlo.add across dimensions = [3] : (tensor<6x2048x6x128xf32>, tensor<f32>) -> tensor<6x2048x6xf32>
    %1280 = stablehlo.reshape %1279 : (tensor<6x2048x6xf32>) -> tensor<6x2048x6x1xf32>
    %1281 = stablehlo.divide %1280, %71 : tensor<6x2048x6x1xf32>
    %1282 = stablehlo.add %1281, %73 : tensor<6x2048x6x1xf32>
    %1283 = stablehlo.rsqrt %1282 : tensor<6x2048x6x1xf32>
    %1284 = stablehlo.broadcast_in_dim %1283, dims = [0, 1, 2, 3] : (tensor<6x2048x6x1xf32>) -> tensor<6x2048x6x128xf32>
    %1285 = stablehlo.multiply %1269, %1284 : tensor<6x2048x6x128xf32>
    %1286 = stablehlo.transpose %1277, dims = [0, 2, 1, 3] : (tensor<6x2048x6x128xf32>) -> tensor<6x6x2048x128xf32>
    %1287 = stablehlo.transpose %1285, dims = [0, 2, 1, 3] : (tensor<6x2048x6x128xf32>) -> tensor<6x6x2048x128xf32>
    %1288 = stablehlo.transpose %1251, dims = [0, 2, 1, 3] : (tensor<6x2048x6x128xf32>) -> tensor<6x6x2048x128xf32>
    %1289 = stablehlo.transpose %1287, dims = [0, 1, 3, 2] : (tensor<6x6x2048x128xf32>) -> tensor<6x6x128x2048xf32>
    %1290 = stablehlo.reshape %1286 : (tensor<6x6x2048x128xf32>) -> tensor<36x2048x128xf32>
    %1291 = stablehlo.reshape %1289 : (tensor<6x6x128x2048xf32>) -> tensor<36x128x2048xf32>
    %1292 = stablehlo.broadcast_in_dim %1291, dims = [0, 1, 2] : (tensor<36x128x2048xf32>) -> tensor<36x128x2048xf32>
    %1293 = stablehlo.dot_general %1290, %1292, batching_dims = [0] x [0], contracting_dims = [2] x [1] : (tensor<36x2048x128xf32>, tensor<36x128x2048xf32>) -> tensor<36x2048x2048xf32>
    %1294 = stablehlo.reshape %1293 : (tensor<36x2048x2048xf32>) -> tensor<6x6x2048x2048xf32>
    %1295 = stablehlo.multiply %1294, %97 : tensor<6x6x2048x2048xf32>
    %1296 = stablehlo.broadcast_in_dim %1295, dims = [0, 1, 2, 3] : (tensor<6x6x2048x2048xf32>) -> tensor<6x6x2048x2048xf32>
    %1297 = stablehlo.select %116, %117, %1296 : tensor<6x6x2048x2048xi1>, tensor<6x6x2048x2048xf32>
    %1298 = stablehlo.reduce(%1297 init: %cst_7) applies stablehlo.maximum across dimensions = [3] : (tensor<6x6x2048x2048xf32>, tensor<f32>) -> tensor<6x6x2048xf32>
    %1299 = stablehlo.reshape %1298 : (tensor<6x6x2048xf32>) -> tensor<6x6x2048x1xf32>
    %1300 = stablehlo.broadcast_in_dim %1299, dims = [0, 1, 2, 3] : (tensor<6x6x2048x1xf32>) -> tensor<6x6x2048x2048xf32>
    %1301 = stablehlo.subtract %1297, %1300 : tensor<6x6x2048x2048xf32>
    %1302 = stablehlo.exponential %1301 : tensor<6x6x2048x2048xf32>
    %1303 = stablehlo.reduce(%1302 init: %cst) applies stablehlo.add across dimensions = [3] : (tensor<6x6x2048x2048xf32>, tensor<f32>) -> tensor<6x6x2048xf32>
    %1304 = stablehlo.reshape %1303 : (tensor<6x6x2048xf32>) -> tensor<6x6x2048x1xf32>
    %1305 = stablehlo.broadcast_in_dim %1304, dims = [0, 1, 2, 3] : (tensor<6x6x2048x1xf32>) -> tensor<6x6x2048x2048xf32>
    %1306 = stablehlo.divide %1302, %1305 : tensor<6x6x2048x2048xf32>
    %1307 = stablehlo.reshape %1306 : (tensor<6x6x2048x2048xf32>) -> tensor<36x2048x2048xf32>
    %1308 = stablehlo.reshape %1288 : (tensor<6x6x2048x128xf32>) -> tensor<36x2048x128xf32>
    %1309 = stablehlo.broadcast_in_dim %1308, dims = [0, 1, 2] : (tensor<36x2048x128xf32>) -> tensor<36x2048x128xf32>
    %1310 = stablehlo.dot_general %1307, %1309, batching_dims = [0] x [0], contracting_dims = [2] x [1] : (tensor<36x2048x2048xf32>, tensor<36x2048x128xf32>) -> tensor<36x2048x128xf32>
    %1311 = stablehlo.reshape %1310 : (tensor<36x2048x128xf32>) -> tensor<6x6x2048x128xf32>
    %1312 = stablehlo.transpose %1311, dims = [0, 2, 1, 3] : (tensor<6x6x2048x128xf32>) -> tensor<6x2048x6x128xf32>
    %1313 = stablehlo.reshape %1312 : (tensor<6x2048x6x128xf32>) -> tensor<6x2048x768xf32>
    %1314 = stablehlo.transpose %arg70, dims = [1, 0] : (tensor<768x768xf32>) -> tensor<768x768xf32>
    %1315 = stablehlo.reshape %1313 : (tensor<6x2048x768xf32>) -> tensor<12288x768xf32>
    %1316 = stablehlo.dot_general %1315, %1314, contracting_dims = [1] x [0] : (tensor<12288x768xf32>, tensor<768x768xf32>) -> tensor<12288x768xf32>
    %1317 = stablehlo.reshape %1316 : (tensor<12288x768xf32>) -> tensor<6x2048x768xf32>
    %1318 = stablehlo.add %1230, %1317 : tensor<6x2048x768xf32>
    %1319 = stablehlo.power %1318, %4 : tensor<6x2048x768xf32>
    %1320 = stablehlo.reduce(%1319 init: %cst) applies stablehlo.add across dimensions = [2] : (tensor<6x2048x768xf32>, tensor<f32>) -> tensor<6x2048xf32>
    %1321 = stablehlo.reshape %1320 : (tensor<6x2048xf32>) -> tensor<6x2048x1xf32>
    %1322 = stablehlo.divide %1321, %10 : tensor<6x2048x1xf32>
    %1323 = stablehlo.add %1322, %14 : tensor<6x2048x1xf32>
    %1324 = stablehlo.rsqrt %1323 : tensor<6x2048x1xf32>
    %1325 = stablehlo.broadcast_in_dim %1324, dims = [0, 1, 2] : (tensor<6x2048x1xf32>) -> tensor<6x2048x768xf32>
    %1326 = stablehlo.multiply %1318, %1325 : tensor<6x2048x768xf32>
    %1327 = stablehlo.transpose %arg71, dims = [1, 0] : (tensor<3072x768xf32>) -> tensor<768x3072xf32>
    %1328 = stablehlo.reshape %1326 : (tensor<6x2048x768xf32>) -> tensor<12288x768xf32>
    %1329 = stablehlo.dot_general %1328, %1327, contracting_dims = [1] x [0] : (tensor<12288x768xf32>, tensor<768x3072xf32>) -> tensor<12288x3072xf32>
    %1330 = stablehlo.reshape %1329 : (tensor<12288x3072xf32>) -> tensor<6x2048x3072xf32>
    %1331 = stablehlo.maximum %1330, %cst_11 : tensor<6x2048x3072xf32>
    %1332 = stablehlo.power %1331, %154 : tensor<6x2048x3072xf32>
    %1333 = stablehlo.transpose %arg72, dims = [1, 0] : (tensor<768x3072xf32>) -> tensor<3072x768xf32>
    %1334 = stablehlo.reshape %1332 : (tensor<6x2048x3072xf32>) -> tensor<12288x3072xf32>
    %1335 = stablehlo.dot_general %1334, %1333, contracting_dims = [1] x [0] : (tensor<12288x3072xf32>, tensor<3072x768xf32>) -> tensor<12288x768xf32>
    %1336 = stablehlo.reshape %1335 : (tensor<12288x768xf32>) -> tensor<6x2048x768xf32>
    %1337 = stablehlo.add %1318, %1336 : tensor<6x2048x768xf32>
    %1338 = stablehlo.power %1337, %4 : tensor<6x2048x768xf32>
    %1339 = stablehlo.reduce(%1338 init: %cst) applies stablehlo.add across dimensions = [2] : (tensor<6x2048x768xf32>, tensor<f32>) -> tensor<6x2048xf32>
    %1340 = stablehlo.reshape %1339 : (tensor<6x2048xf32>) -> tensor<6x2048x1xf32>
    %1341 = stablehlo.divide %1340, %10 : tensor<6x2048x1xf32>
    %1342 = stablehlo.add %1341, %14 : tensor<6x2048x1xf32>
    %1343 = stablehlo.rsqrt %1342 : tensor<6x2048x1xf32>
    %1344 = stablehlo.broadcast_in_dim %1343, dims = [0, 1, 2] : (tensor<6x2048x1xf32>) -> tensor<6x2048x768xf32>
    %1345 = stablehlo.multiply %1337, %1344 : tensor<6x2048x768xf32>
    %1346 = stablehlo.transpose %arg73, dims = [1, 0] : (tensor<65536x768xf32>) -> tensor<768x65536xf32>
    %1347 = stablehlo.reshape %1345 : (tensor<6x2048x768xf32>) -> tensor<12288x768xf32>
    %1348 = stablehlo.dot_general %1347, %1346, contracting_dims = [1] x [0] : (tensor<12288x768xf32>, tensor<768x65536xf32>) -> tensor<12288x65536xf32>
    %1349 = stablehlo.reshape %1348 : (tensor<12288x65536xf32>) -> tensor<6x2048x65536xf32>
    %1350 = stablehlo.convert %cst_17 : (tensor<1xi64>) -> tensor<1xf32>
    %1351 = stablehlo.reshape %1350 : (tensor<1xf32>) -> tensor<f32>
    %1352 = stablehlo.broadcast_in_dim %1351, dims = [] : (tensor<f32>) -> tensor<6x2048x65536xf32>
    %1353 = stablehlo.divide %1349, %1352 : tensor<6x2048x65536xf32>
    %1354 = stablehlo.tanh %1353 : tensor<6x2048x65536xf32>
    %1355 = stablehlo.multiply %1354, %1352 : tensor<6x2048x65536xf32>
    %1356 = stablehlo.reshape %1355 : (tensor<6x2048x65536xf32>) -> tensor<12288x65536xf32>
    %1357 = stablehlo.reshape %arg75 : (tensor<6x2048xi64>) -> tensor<12288xi64>
    %1358 = stablehlo.reduce(%1356 init: %cst_7) applies stablehlo.maximum across dimensions = [1] : (tensor<12288x65536xf32>, tensor<f32>) -> tensor<12288xf32>
    %1359 = stablehlo.reshape %1358 : (tensor<12288xf32>) -> tensor<12288x1xf32>
    %1360 = stablehlo.broadcast_in_dim %1359, dims = [0, 1] : (tensor<12288x1xf32>) -> tensor<12288x65536xf32>
    %1361 = stablehlo.subtract %1356, %1360 : tensor<12288x65536xf32>
    %1362 = stablehlo.exponential %1361 : tensor<12288x65536xf32>
    %1363 = stablehlo.reduce(%1362 init: %cst) applies stablehlo.add across dimensions = [1] : (tensor<12288x65536xf32>, tensor<f32>) -> tensor<12288xf32>
    %1364 = stablehlo.reshape %1363 : (tensor<12288xf32>) -> tensor<12288x1xf32>
    %1365 = stablehlo.log %1364 : tensor<12288x1xf32>
    %1366 = stablehlo.broadcast_in_dim %1365, dims = [0, 1] : (tensor<12288x1xf32>) -> tensor<12288x65536xf32>
    %1367 = stablehlo.subtract %1361, %1366 : tensor<12288x65536xf32>
    %1368 = stablehlo.compare  NE, %1357, %c_0,  SIGNED : (tensor<12288xi64>, tensor<12288xi64>) -> tensor<12288xi1>
    %1369 = stablehlo.broadcast_in_dim %1368, dims = [0] : (tensor<12288xi1>) -> tensor<12288xi1>
    %1370 = stablehlo.broadcast_in_dim %1357, dims = [0] : (tensor<12288xi64>) -> tensor<12288xi64>
    %1371 = stablehlo.select %1369, %1370, %c : tensor<12288xi1>, tensor<12288xi64>
    %1372 = stablehlo.reshape %1371 : (tensor<12288xi64>) -> tensor<12288x1xi64>
    %1373 = stablehlo.iota dim = 0 : tensor<12288x1x1xi64>
    %1374 = stablehlo.reshape %1372 : (tensor<12288x1xi64>) -> tensor<12288x1x1xi64>
    %1375 = stablehlo.concatenate %1373, %1374, dim = 2 : (tensor<12288x1x1xi64>, tensor<12288x1x1xi64>) -> tensor<12288x1x2xi64>
    %1376 = "stablehlo.gather"(%1367, %1375) <{dimension_numbers = #stablehlo.gather<collapsed_slice_dims = [0, 1], start_index_map = [0, 1], index_vector_dim = 2>, slice_sizes = array<i64: 1, 1>}> : (tensor<12288x65536xf32>, tensor<12288x1x2xi64>) -> tensor<12288x1xf32>
    %1377 = stablehlo.reshape %1376 : (tensor<12288x1xf32>) -> tensor<12288xf32>
    %1378 = stablehlo.negate %1377 : tensor<12288xf32>
    %1379 = stablehlo.broadcast_in_dim %1378, dims = [0] : (tensor<12288xf32>) -> tensor<12288xf32>
    %1380 = stablehlo.broadcast_in_dim %cst, dims = [] : (tensor<f32>) -> tensor<12288xf32>
    %1381 = stablehlo.select %1369, %1379, %1380 : tensor<12288xi1>, tensor<12288xf32>
    %1382 = stablehlo.convert %1368 : (tensor<12288xi1>) -> tensor<12288xi64>
    %1383 = stablehlo.reduce(%1382 init: %c_6) applies stablehlo.add across dimensions = [0] : (tensor<12288xi64>, tensor<i64>) -> tensor<i64>
    %1384 = stablehlo.convert %1383 : (tensor<i64>) -> tensor<f32>
    %1385 = stablehlo.reduce(%1381 init: %cst) applies stablehlo.add across dimensions = [0] : (tensor<12288xf32>, tensor<f32>) -> tensor<f32>
    %1386 = stablehlo.divide %1385, %1384 : tensor<f32>
    return %1386 : tensor<f32>
  }
}

{-#
  dialect_resources: {
    builtin: {
      torch_tensor_1_2048_1_64_torch.bfloat16_1: "…",
      torch_tensor_1_2048_1_64_torch.bfloat16: "…"
    }
  }
#-}
