module {
  func.func @main(%arg0: tensor<65536x64xf32>, %arg1: tensor<64x64xf32>, %arg2: tensor<64x64xf32>, %arg3: tensor<64x64xf32>, %arg4: tensor<64x64xf32>, %arg5: tensor<256x64xf32>, %arg6: tensor<64x256xf32>, %arg7: tensor<65536x64xf32>, %arg8: tensor<1x256xi64>, %arg9: tensor<1x256xi64>) -> tensor<f32> {
    %c = stablehlo.constant dense<-1> : tensor<256xi64>
    %c_0 = stablehlo.constant dense<1> : tensor<256x256xi64>
    %c_1 = stablehlo.constant dense<0> : tensor<256xi64>
    %c_2 = stablehlo.constant dense<1> : tensor<256xi64>
    %c_3 = stablehlo.constant dense<256> : tensor<i64>
    %c_4 = stablehlo.constant dense<1> : tensor<i64>
    %cst = stablehlo.constant dense<0.000000e+00> : tensor<f32>
    %c_5 = stablehlo.constant dense<0> : tensor<i64>
    %cst_6 = stablehlo.constant dense<0xFF800000> : tensor<f32>
    %c_7 = stablehlo.constant dense<true> : tensor<256x256xi1>
    %cst_8 = stablehlo.constant dense_resource<torch_tensor_1_256_1_8_torch.bfloat16_1> : tensor<1x256x1x8xbf16>
    %cst_9 = stablehlo.constant dense_resource<torch_tensor_1_256_1_8_torch.bfloat16> : tensor<1x256x1x8xbf16>
    %cst_10 = stablehlo.constant dense<0.000000e+00> : tensor<1x256x256xf32>
    %cst_11 = arith.constant dense<2> : tensor<1xi64>
    %cst_12 = arith.constant dense<64> : tensor<1xi64>
    %cst_13 = arith.constant dense<1.000000e-05> : tensor<1xf64>
    %cst_14 = arith.constant dense<16> : tensor<1xi64>
    %cst_15 = arith.constant dense<2.500000e-01> : tensor<1xf64>
    %cst_16 = arith.constant dense<15> : tensor<1xi64>
    %0 = "stablehlo.gather"(%arg0, %arg8) <{dimension_numbers = #stablehlo.gather<offset_dims = [2], collapsed_slice_dims = [0], start_index_map = [0], index_vector_dim = 2>, indices_are_sorted = false, slice_sizes = array<i64: 1, 64>}> : (tensor<65536x64xf32>, tensor<1x256xi64>) -> tensor<1x256x64xf32>
    %1 = stablehlo.convert %0 : tensor<1x256x64xf32>
    %2 = stablehlo.convert %cst_11 : (tensor<1xi64>) -> tensor<1xf32>
    %3 = stablehlo.reshape %2 : (tensor<1xf32>) -> tensor<f32>
    %4 = stablehlo.broadcast_in_dim %3, dims = [] : (tensor<f32>) -> tensor<1x256x64xf32>
    %5 = stablehlo.power %1, %4 : tensor<1x256x64xf32>
    %6 = stablehlo.reduce(%5 init: %cst) applies stablehlo.add across dimensions = [2] : (tensor<1x256x64xf32>, tensor<f32>) -> tensor<1x256xf32>
    %7 = stablehlo.reshape %6 : (tensor<1x256xf32>) -> tensor<1x256x1xf32>
    %8 = stablehlo.convert %cst_12 : (tensor<1xi64>) -> tensor<1xf32>
    %9 = stablehlo.reshape %8 : (tensor<1xf32>) -> tensor<f32>
    %10 = stablehlo.broadcast_in_dim %9, dims = [] : (tensor<f32>) -> tensor<1x256x1xf32>
    %11 = stablehlo.divide %7, %10 : tensor<1x256x1xf32>
    %12 = stablehlo.convert %cst_13 : (tensor<1xf64>) -> tensor<1xf32>
    %13 = stablehlo.reshape %12 : (tensor<1xf32>) -> tensor<f32>
    %14 = stablehlo.broadcast_in_dim %13, dims = [] : (tensor<f32>) -> tensor<1x256x1xf32>
    %15 = stablehlo.add %11, %14 : tensor<1x256x1xf32>
    %16 = stablehlo.rsqrt %15 : tensor<1x256x1xf32>
    %17 = stablehlo.broadcast_in_dim %16, dims = [0, 1, 2] : (tensor<1x256x1xf32>) -> tensor<1x256x64xf32>
    %18 = stablehlo.multiply %1, %17 : tensor<1x256x64xf32>
    %19 = stablehlo.power %18, %4 : tensor<1x256x64xf32>
    %20 = stablehlo.reduce(%19 init: %cst) applies stablehlo.add across dimensions = [2] : (tensor<1x256x64xf32>, tensor<f32>) -> tensor<1x256xf32>
    %21 = stablehlo.reshape %20 : (tensor<1x256xf32>) -> tensor<1x256x1xf32>
    %22 = stablehlo.divide %21, %10 : tensor<1x256x1xf32>
    %23 = stablehlo.add %22, %14 : tensor<1x256x1xf32>
    %24 = stablehlo.rsqrt %23 : tensor<1x256x1xf32>
    %25 = stablehlo.broadcast_in_dim %24, dims = [0, 1, 2] : (tensor<1x256x1xf32>) -> tensor<1x256x64xf32>
    %26 = stablehlo.multiply %18, %25 : tensor<1x256x64xf32>
    %27 = stablehlo.transpose %arg1, dims = [1, 0] : (tensor<64x64xf32>) -> tensor<64x64xf32>
    %28 = stablehlo.reshape %26 : (tensor<1x256x64xf32>) -> tensor<256x64xf32>
    %29 = stablehlo.dot_general %28, %27, contracting_dims = [1] x [0] : (tensor<256x64xf32>, tensor<64x64xf32>) -> tensor<256x64xf32>
    %30 = stablehlo.reshape %29 : (tensor<256x64xf32>) -> tensor<1x256x64xf32>
    %31 = stablehlo.reshape %30 : (tensor<1x256x64xf32>) -> tensor<1x256x4x16xf32>
    %32 = stablehlo.transpose %arg2, dims = [1, 0] : (tensor<64x64xf32>) -> tensor<64x64xf32>
    %33 = stablehlo.dot_general %28, %32, contracting_dims = [1] x [0] : (tensor<256x64xf32>, tensor<64x64xf32>) -> tensor<256x64xf32>
    %34 = stablehlo.reshape %33 : (tensor<256x64xf32>) -> tensor<1x256x64xf32>
    %35 = stablehlo.reshape %34 : (tensor<1x256x64xf32>) -> tensor<1x256x4x16xf32>
    %36 = stablehlo.transpose %arg3, dims = [1, 0] : (tensor<64x64xf32>) -> tensor<64x64xf32>
    %37 = stablehlo.dot_general %28, %36, contracting_dims = [1] x [0] : (tensor<256x64xf32>, tensor<64x64xf32>) -> tensor<256x64xf32>
    %38 = stablehlo.reshape %37 : (tensor<256x64xf32>) -> tensor<1x256x64xf32>
    %39 = stablehlo.reshape %38 : (tensor<1x256x64xf32>) -> tensor<1x256x4x16xf32>
    %40 = stablehlo.slice %31 [0:1, 0:256, 0:4, 0:8] : (tensor<1x256x4x16xf32>) -> tensor<1x256x4x8xf32>
    %41 = stablehlo.slice %31 [0:1, 0:256, 0:4, 8:16] : (tensor<1x256x4x16xf32>) -> tensor<1x256x4x8xf32>
    %42 = stablehlo.convert %cst_9 : (tensor<1x256x1x8xbf16>) -> tensor<1x256x1x8xf32>
    %43 = stablehlo.broadcast_in_dim %42, dims = [0, 1, 2, 3] : (tensor<1x256x1x8xf32>) -> tensor<1x256x4x8xf32>
    %44 = stablehlo.multiply %40, %43 : tensor<1x256x4x8xf32>
    %45 = stablehlo.convert %cst_8 : (tensor<1x256x1x8xbf16>) -> tensor<1x256x1x8xf32>
    %46 = stablehlo.broadcast_in_dim %45, dims = [0, 1, 2, 3] : (tensor<1x256x1x8xf32>) -> tensor<1x256x4x8xf32>
    %47 = stablehlo.multiply %41, %46 : tensor<1x256x4x8xf32>
    %48 = stablehlo.add %44, %47 : tensor<1x256x4x8xf32>
    %49 = stablehlo.negate %cst_8 : tensor<1x256x1x8xbf16>
    %50 = stablehlo.convert %49 : (tensor<1x256x1x8xbf16>) -> tensor<1x256x1x8xf32>
    %51 = stablehlo.broadcast_in_dim %50, dims = [0, 1, 2, 3] : (tensor<1x256x1x8xf32>) -> tensor<1x256x4x8xf32>
    %52 = stablehlo.multiply %40, %51 : tensor<1x256x4x8xf32>
    %53 = stablehlo.multiply %41, %43 : tensor<1x256x4x8xf32>
    %54 = stablehlo.add %52, %53 : tensor<1x256x4x8xf32>
    %55 = stablehlo.concatenate %48, %54, dim = 3 : (tensor<1x256x4x8xf32>, tensor<1x256x4x8xf32>) -> tensor<1x256x4x16xf32>
    %56 = stablehlo.slice %35 [0:1, 0:256, 0:4, 0:8] : (tensor<1x256x4x16xf32>) -> tensor<1x256x4x8xf32>
    %57 = stablehlo.slice %35 [0:1, 0:256, 0:4, 8:16] : (tensor<1x256x4x16xf32>) -> tensor<1x256x4x8xf32>
    %58 = stablehlo.multiply %56, %43 : tensor<1x256x4x8xf32>
    %59 = stablehlo.multiply %57, %46 : tensor<1x256x4x8xf32>
    %60 = stablehlo.add %58, %59 : tensor<1x256x4x8xf32>
    %61 = stablehlo.multiply %56, %51 : tensor<1x256x4x8xf32>
    %62 = stablehlo.multiply %57, %43 : tensor<1x256x4x8xf32>
    %63 = stablehlo.add %61, %62 : tensor<1x256x4x8xf32>
    %64 = stablehlo.concatenate %60, %63, dim = 3 : (tensor<1x256x4x8xf32>, tensor<1x256x4x8xf32>) -> tensor<1x256x4x16xf32>
    %65 = stablehlo.broadcast_in_dim %3, dims = [] : (tensor<f32>) -> tensor<1x256x4x16xf32>
    %66 = stablehlo.power %55, %65 : tensor<1x256x4x16xf32>
    %67 = stablehlo.reduce(%66 init: %cst) applies stablehlo.add across dimensions = [3] : (tensor<1x256x4x16xf32>, tensor<f32>) -> tensor<1x256x4xf32>
    %68 = stablehlo.reshape %67 : (tensor<1x256x4xf32>) -> tensor<1x256x4x1xf32>
    %69 = stablehlo.convert %cst_14 : (tensor<1xi64>) -> tensor<1xf32>
    %70 = stablehlo.reshape %69 : (tensor<1xf32>) -> tensor<f32>
    %71 = stablehlo.broadcast_in_dim %70, dims = [] : (tensor<f32>) -> tensor<1x256x4x1xf32>
    %72 = stablehlo.divide %68, %71 : tensor<1x256x4x1xf32>
    %73 = stablehlo.broadcast_in_dim %13, dims = [] : (tensor<f32>) -> tensor<1x256x4x1xf32>
    %74 = stablehlo.add %72, %73 : tensor<1x256x4x1xf32>
    %75 = stablehlo.rsqrt %74 : tensor<1x256x4x1xf32>
    %76 = stablehlo.broadcast_in_dim %75, dims = [0, 1, 2, 3] : (tensor<1x256x4x1xf32>) -> tensor<1x256x4x16xf32>
    %77 = stablehlo.multiply %55, %76 : tensor<1x256x4x16xf32>
    %78 = stablehlo.power %64, %65 : tensor<1x256x4x16xf32>
    %79 = stablehlo.reduce(%78 init: %cst) applies stablehlo.add across dimensions = [3] : (tensor<1x256x4x16xf32>, tensor<f32>) -> tensor<1x256x4xf32>
    %80 = stablehlo.reshape %79 : (tensor<1x256x4xf32>) -> tensor<1x256x4x1xf32>
    %81 = stablehlo.divide %80, %71 : tensor<1x256x4x1xf32>
    %82 = stablehlo.add %81, %73 : tensor<1x256x4x1xf32>
    %83 = stablehlo.rsqrt %82 : tensor<1x256x4x1xf32>
    %84 = stablehlo.broadcast_in_dim %83, dims = [0, 1, 2, 3] : (tensor<1x256x4x1xf32>) -> tensor<1x256x4x16xf32>
    %85 = stablehlo.multiply %64, %84 : tensor<1x256x4x16xf32>
    %86 = stablehlo.transpose %77, dims = [0, 2, 1, 3] : (tensor<1x256x4x16xf32>) -> tensor<1x4x256x16xf32>
    %87 = stablehlo.transpose %85, dims = [0, 2, 1, 3] : (tensor<1x256x4x16xf32>) -> tensor<1x4x256x16xf32>
    %88 = stablehlo.transpose %39, dims = [0, 2, 1, 3] : (tensor<1x256x4x16xf32>) -> tensor<1x4x256x16xf32>
    %89 = stablehlo.transpose %87, dims = [0, 1, 3, 2] : (tensor<1x4x256x16xf32>) -> tensor<1x4x16x256xf32>
    %90 = stablehlo.reshape %86 : (tensor<1x4x256x16xf32>) -> tensor<4x256x16xf32>
    %91 = stablehlo.reshape %89 : (tensor<1x4x16x256xf32>) -> tensor<4x16x256xf32>
    %92 = stablehlo.broadcast_in_dim %91, dims = [0, 1, 2] : (tensor<4x16x256xf32>) -> tensor<4x16x256xf32>
    %93 = stablehlo.dot_general %90, %92, batching_dims = [0] x [0], contracting_dims = [2] x [1] : (tensor<4x256x16xf32>, tensor<4x16x256xf32>) -> tensor<4x256x256xf32>
    %94 = stablehlo.reshape %93 : (tensor<4x256x256xf32>) -> tensor<1x4x256x256xf32>
    %95 = stablehlo.convert %cst_15 : (tensor<1xf64>) -> tensor<1xf32>
    %96 = stablehlo.reshape %95 : (tensor<1xf32>) -> tensor<f32>
    %97 = stablehlo.broadcast_in_dim %96, dims = [] : (tensor<f32>) -> tensor<1x4x256x256xf32>
    %98 = stablehlo.multiply %94, %97 : tensor<1x4x256x256xf32>
    %99 = stablehlo.convert %c_4 : (tensor<i64>) -> tensor<f64>
    %100 = stablehlo.convert %c_3 : (tensor<i64>) -> tensor<f64>
    %101 = stablehlo.divide %100, %99 : tensor<f64>
    %102 = stablehlo.ceil %101 : tensor<f64>
    %103 = stablehlo.convert %102 : (tensor<f64>) -> tensor<i64>
    %104 = stablehlo.reshape %103 : (tensor<i64>) -> tensor<1xi64>
    %105 = stablehlo.dynamic_iota %104, dim = 0 : (tensor<1xi64>) -> tensor<256xi64>
    %106 = stablehlo.multiply %105, %c_2 : tensor<256xi64>
    %107 = stablehlo.add %106, %c_1 : tensor<256xi64>
    %108 = stablehlo.reshape %107 : (tensor<256xi64>) -> tensor<1x256xi64>
    %109 = stablehlo.reshape %107 : (tensor<256xi64>) -> tensor<256x1xi64>
    %110 = stablehlo.broadcast_in_dim %108, dims = [0, 1] : (tensor<1x256xi64>) -> tensor<256x256xi64>
    %111 = stablehlo.broadcast_in_dim %109, dims = [0, 1] : (tensor<256x1xi64>) -> tensor<256x256xi64>
    %112 = stablehlo.subtract %110, %111 : tensor<256x256xi64>
    %113 = stablehlo.compare  GE, %112, %c_0,  SIGNED : (tensor<256x256xi64>, tensor<256x256xi64>) -> tensor<256x256xi1>
    %114 = stablehlo.and %113, %c_7 : tensor<256x256xi1>
    %115 = stablehlo.reshape %114 : (tensor<256x256xi1>) -> tensor<1x1x256x256xi1>
    %116 = stablehlo.broadcast_in_dim %115, dims = [0, 1, 2, 3] : (tensor<1x1x256x256xi1>) -> tensor<1x4x256x256xi1>
    %117 = stablehlo.broadcast_in_dim %cst_6, dims = [] : (tensor<f32>) -> tensor<1x4x256x256xf32>
    %118 = stablehlo.broadcast_in_dim %98, dims = [0, 1, 2, 3] : (tensor<1x4x256x256xf32>) -> tensor<1x4x256x256xf32>
    %119 = stablehlo.select %116, %117, %118 : tensor<1x4x256x256xi1>, tensor<1x4x256x256xf32>
    %120 = stablehlo.reduce(%119 init: %cst_6) applies stablehlo.maximum across dimensions = [3] : (tensor<1x4x256x256xf32>, tensor<f32>) -> tensor<1x4x256xf32>
    %121 = stablehlo.reshape %120 : (tensor<1x4x256xf32>) -> tensor<1x4x256x1xf32>
    %122 = stablehlo.broadcast_in_dim %121, dims = [0, 1, 2, 3] : (tensor<1x4x256x1xf32>) -> tensor<1x4x256x256xf32>
    %123 = stablehlo.subtract %119, %122 : tensor<1x4x256x256xf32>
    %124 = stablehlo.exponential %123 : tensor<1x4x256x256xf32>
    %125 = stablehlo.reduce(%124 init: %cst) applies stablehlo.add across dimensions = [3] : (tensor<1x4x256x256xf32>, tensor<f32>) -> tensor<1x4x256xf32>
    %126 = stablehlo.reshape %125 : (tensor<1x4x256xf32>) -> tensor<1x4x256x1xf32>
    %127 = stablehlo.broadcast_in_dim %126, dims = [0, 1, 2, 3] : (tensor<1x4x256x1xf32>) -> tensor<1x4x256x256xf32>
    %128 = stablehlo.divide %124, %127 : tensor<1x4x256x256xf32>
    %129 = stablehlo.reshape %128 : (tensor<1x4x256x256xf32>) -> tensor<4x256x256xf32>
    %130 = stablehlo.reshape %88 : (tensor<1x4x256x16xf32>) -> tensor<4x256x16xf32>
    %131 = stablehlo.broadcast_in_dim %130, dims = [0, 1, 2] : (tensor<4x256x16xf32>) -> tensor<4x256x16xf32>
    %132 = stablehlo.dot_general %129, %131, batching_dims = [0] x [0], contracting_dims = [2] x [1] : (tensor<4x256x256xf32>, tensor<4x256x16xf32>) -> tensor<4x256x16xf32>
    %133 = stablehlo.reshape %132 : (tensor<4x256x16xf32>) -> tensor<1x4x256x16xf32>
    %134 = stablehlo.transpose %133, dims = [0, 2, 1, 3] : (tensor<1x4x256x16xf32>) -> tensor<1x256x4x16xf32>
    %135 = stablehlo.reshape %134 : (tensor<1x256x4x16xf32>) -> tensor<1x256x64xf32>
    %136 = stablehlo.transpose %arg4, dims = [1, 0] : (tensor<64x64xf32>) -> tensor<64x64xf32>
    %137 = stablehlo.reshape %135 : (tensor<1x256x64xf32>) -> tensor<256x64xf32>
    %138 = stablehlo.dot_general %137, %136, contracting_dims = [1] x [0] : (tensor<256x64xf32>, tensor<64x64xf32>) -> tensor<256x64xf32>
    %139 = stablehlo.reshape %138 : (tensor<256x64xf32>) -> tensor<1x256x64xf32>
    %140 = stablehlo.add %18, %139 : tensor<1x256x64xf32>
    %141 = stablehlo.power %140, %4 : tensor<1x256x64xf32>
    %142 = stablehlo.reduce(%141 init: %cst) applies stablehlo.add across dimensions = [2] : (tensor<1x256x64xf32>, tensor<f32>) -> tensor<1x256xf32>
    %143 = stablehlo.reshape %142 : (tensor<1x256xf32>) -> tensor<1x256x1xf32>
    %144 = stablehlo.divide %143, %10 : tensor<1x256x1xf32>
    %145 = stablehlo.add %144, %14 : tensor<1x256x1xf32>
    %146 = stablehlo.rsqrt %145 : tensor<1x256x1xf32>
    %147 = stablehlo.broadcast_in_dim %146, dims = [0, 1, 2] : (tensor<1x256x1xf32>) -> tensor<1x256x64xf32>
    %148 = stablehlo.multiply %140, %147 : tensor<1x256x64xf32>
    %149 = stablehlo.transpose %arg5, dims = [1, 0] : (tensor<256x64xf32>) -> tensor<64x256xf32>
    %150 = stablehlo.reshape %148 : (tensor<1x256x64xf32>) -> tensor<256x64xf32>
    %151 = stablehlo.dot_general %150, %149, contracting_dims = [1] x [0] : (tensor<256x64xf32>, tensor<64x256xf32>) -> tensor<256x256xf32>
    %152 = stablehlo.reshape %151 : (tensor<256x256xf32>) -> tensor<1x256x256xf32>
    %153 = stablehlo.maximum %152, %cst_10 : tensor<1x256x256xf32>
    %154 = stablehlo.broadcast_in_dim %3, dims = [] : (tensor<f32>) -> tensor<1x256x256xf32>
    %155 = stablehlo.power %153, %154 : tensor<1x256x256xf32>
    %156 = stablehlo.transpose %arg6, dims = [1, 0] : (tensor<64x256xf32>) -> tensor<256x64xf32>
    %157 = stablehlo.reshape %155 : (tensor<1x256x256xf32>) -> tensor<256x256xf32>
    %158 = stablehlo.dot_general %157, %156, contracting_dims = [1] x [0] : (tensor<256x256xf32>, tensor<256x64xf32>) -> tensor<256x64xf32>
    %159 = stablehlo.reshape %158 : (tensor<256x64xf32>) -> tensor<1x256x64xf32>
    %160 = stablehlo.add %140, %159 : tensor<1x256x64xf32>
    %161 = stablehlo.power %160, %4 : tensor<1x256x64xf32>
    %162 = stablehlo.reduce(%161 init: %cst) applies stablehlo.add across dimensions = [2] : (tensor<1x256x64xf32>, tensor<f32>) -> tensor<1x256xf32>
    %163 = stablehlo.reshape %162 : (tensor<1x256xf32>) -> tensor<1x256x1xf32>
    %164 = stablehlo.divide %163, %10 : tensor<1x256x1xf32>
    %165 = stablehlo.add %164, %14 : tensor<1x256x1xf32>
    %166 = stablehlo.rsqrt %165 : tensor<1x256x1xf32>
    %167 = stablehlo.broadcast_in_dim %166, dims = [0, 1, 2] : (tensor<1x256x1xf32>) -> tensor<1x256x64xf32>
    %168 = stablehlo.multiply %160, %167 : tensor<1x256x64xf32>
    %169 = stablehlo.transpose %arg7, dims = [1, 0] : (tensor<65536x64xf32>) -> tensor<64x65536xf32>
    %170 = stablehlo.reshape %168 : (tensor<1x256x64xf32>) -> tensor<256x64xf32>
    %171 = stablehlo.dot_general %170, %169, contracting_dims = [1] x [0] : (tensor<256x64xf32>, tensor<64x65536xf32>) -> tensor<256x65536xf32>
    %172 = stablehlo.reshape %171 : (tensor<256x65536xf32>) -> tensor<1x256x65536xf32>
    %173 = stablehlo.convert %cst_16 : (tensor<1xi64>) -> tensor<1xf32>
    %174 = stablehlo.reshape %173 : (tensor<1xf32>) -> tensor<f32>
    %175 = stablehlo.broadcast_in_dim %174, dims = [] : (tensor<f32>) -> tensor<1x256x65536xf32>
    %176 = stablehlo.divide %172, %175 : tensor<1x256x65536xf32>
    %177 = stablehlo.tanh %176 : tensor<1x256x65536xf32>
    %178 = stablehlo.multiply %177, %175 : tensor<1x256x65536xf32>
    %179 = stablehlo.reshape %178 : (tensor<1x256x65536xf32>) -> tensor<256x65536xf32>
    %180 = stablehlo.reshape %arg9 : (tensor<1x256xi64>) -> tensor<256xi64>
    %181 = stablehlo.reduce(%179 init: %cst_6) applies stablehlo.maximum across dimensions = [1] : (tensor<256x65536xf32>, tensor<f32>) -> tensor<256xf32>
    %182 = stablehlo.reshape %181 : (tensor<256xf32>) -> tensor<256x1xf32>
    %183 = stablehlo.broadcast_in_dim %182, dims = [0, 1] : (tensor<256x1xf32>) -> tensor<256x65536xf32>
    %184 = stablehlo.subtract %179, %183 : tensor<256x65536xf32>
    %185 = stablehlo.exponential %184 : tensor<256x65536xf32>
    %186 = stablehlo.reduce(%185 init: %cst) applies stablehlo.add across dimensions = [1] : (tensor<256x65536xf32>, tensor<f32>) -> tensor<256xf32>
    %187 = stablehlo.reshape %186 : (tensor<256xf32>) -> tensor<256x1xf32>
    %188 = stablehlo.log %187 : tensor<256x1xf32>
    %189 = stablehlo.broadcast_in_dim %188, dims = [0, 1] : (tensor<256x1xf32>) -> tensor<256x65536xf32>
    %190 = stablehlo.subtract %184, %189 : tensor<256x65536xf32>
    %191 = stablehlo.compare  NE, %180, %c,  SIGNED : (tensor<256xi64>, tensor<256xi64>) -> tensor<256xi1>
    %192 = stablehlo.broadcast_in_dim %191, dims = [0] : (tensor<256xi1>) -> tensor<256xi1>
    %193 = stablehlo.broadcast_in_dim %180, dims = [0] : (tensor<256xi64>) -> tensor<256xi64>
    %194 = stablehlo.select %192, %193, %c_1 : tensor<256xi1>, tensor<256xi64>
    %195 = stablehlo.reshape %194 : (tensor<256xi64>) -> tensor<256x1xi64>
    %196 = stablehlo.iota dim = 0 : tensor<256x1x1xi64>
    %197 = stablehlo.reshape %195 : (tensor<256x1xi64>) -> tensor<256x1x1xi64>
    %198 = stablehlo.concatenate %196, %197, dim = 2 : (tensor<256x1x1xi64>, tensor<256x1x1xi64>) -> tensor<256x1x2xi64>
    %199 = "stablehlo.gather"(%190, %198) <{dimension_numbers = #stablehlo.gather<collapsed_slice_dims = [0, 1], start_index_map = [0, 1], index_vector_dim = 2>, slice_sizes = array<i64: 1, 1>}> : (tensor<256x65536xf32>, tensor<256x1x2xi64>) -> tensor<256x1xf32>
    %200 = stablehlo.reshape %199 : (tensor<256x1xf32>) -> tensor<256xf32>
    %201 = stablehlo.negate %200 : tensor<256xf32>
    %202 = stablehlo.broadcast_in_dim %201, dims = [0] : (tensor<256xf32>) -> tensor<256xf32>
    %203 = stablehlo.broadcast_in_dim %cst, dims = [] : (tensor<f32>) -> tensor<256xf32>
    %204 = stablehlo.select %192, %202, %203 : tensor<256xi1>, tensor<256xf32>
    %205 = stablehlo.convert %191 : (tensor<256xi1>) -> tensor<256xi64>
    %206 = stablehlo.reduce(%205 init: %c_5) applies stablehlo.add across dimensions = [0] : (tensor<256xi64>, tensor<i64>) -> tensor<i64>
    %207 = stablehlo.convert %206 : (tensor<i64>) -> tensor<f32>
    %208 = stablehlo.reduce(%204 init: %cst) applies stablehlo.add across dimensions = [0] : (tensor<256xf32>, tensor<f32>) -> tensor<f32>
    %209 = stablehlo.divide %208, %207 : tensor<f32>
    return %209 : tensor<f32>
  }
}

{-#
  dialect_resources: {
    builtin: {
      torch_tensor_1_256_1_8_torch.bfloat16_1: "…",
      torch_tensor_1_256_1_8_torch.bfloat16: "…"
    }
  }
#-}
